program(1.0)
[buildInfo = dict<tensor<string, []>, tensor<string, []>>({{"coremlc-component-MIL", "3500.14.1"}, {"coremlc-version", "3500.32.1"}, {"coremltools-component-torch", "2.7.0"}, {"coremltools-source-dialect", "TorchScript"}, {"coremltools-version", "9.0"}})]
{
    func main<ios15>(tensor<fp32, [1, 3, 640, 640]> image) {
            tensor<fp32, []> image__scaled___y_0 = const()[name = tensor<string, []>("image__scaled___y_0"), val = tensor<fp32, []>(0x1.010102p-8)];
            tensor<fp32, [1, 3, 640, 640]> image__scaled__ = mul(x = image, y = image__scaled___y_0)[name = tensor<string, []>("image__scaled__")];
            tensor<string, []> input_1_pad_type_0 = const()[name = tensor<string, []>("input_1_pad_type_0"), val = tensor<string, []>("custom")];
            tensor<int32, [4]> input_1_pad_0 = const()[name = tensor<string, []>("input_1_pad_0"), val = tensor<int32, [4]>([1, 1, 1, 1])];
            tensor<int32, [2]> input_1_strides_0 = const()[name = tensor<string, []>("input_1_strides_0"), val = tensor<int32, [2]>([2, 2])];
            tensor<int32, [2]> input_1_dilations_0 = const()[name = tensor<string, []>("input_1_dilations_0"), val = tensor<int32, [2]>([1, 1])];
            tensor<int32, []> input_1_groups_0 = const()[name = tensor<string, []>("input_1_groups_0"), val = tensor<int32, []>(1)];
            tensor<string, []> image_to_fp16_dtype_0 = const()[name = tensor<string, []>("image_to_fp16_dtype_0"), val = tensor<string, []>("fp16")];
            tensor<fp16, [32, 3, 3, 3]> model_0_conv_weight_to_fp16 = const()[name = tensor<string, []>("model_0_conv_weight_to_fp16"), val = tensor<fp16, [32, 3, 3, 3]>(BLOBFILE(path = tensor<string, []>("@model_path/weights/weight.bin"), offset = tensor<uint64, []>(64)))];
            tensor<fp16, [32]> model_0_conv_bias_to_fp16 = const()[name = tensor<string, []>("model_0_conv_bias_to_fp16"), val = tensor<fp16, [32]>(BLOBFILE(path = tensor<string, []>("@model_path/weights/weight.bin"), offset = tensor<uint64, []>(1856)))];
            tensor<fp16, [1, 3, 640, 640]> image_to_fp16 = cast(dtype = image_to_fp16_dtype_0, x = image__scaled__)[name = tensor<string, []>("cast_16")];
            tensor<fp16, [1, 32, 320, 320]> input_1_cast_fp16 = conv(bias = model_0_conv_bias_to_fp16, dilations = input_1_dilations_0, groups = input_1_groups_0, pad = input_1_pad_0, pad_type = input_1_pad_type_0, strides = input_1_strides_0, weight = model_0_conv_weight_to_fp16, x = image_to_fp16)[name = tensor<string, []>("input_1_cast_fp16")];
            tensor<fp16, [1, 32, 320, 320]> input_3_cast_fp16 = silu(x = input_1_cast_fp16)[name = tensor<string, []>("input_3_cast_fp16")];
            tensor<string, []> input_5_pad_type_0 = const()[name = tensor<string, []>("input_5_pad_type_0"), val = tensor<string, []>("custom")];
            tensor<int32, [4]> input_5_pad_0 = const()[name = tensor<string, []>("input_5_pad_0"), val = tensor<int32, [4]>([1, 1, 1, 1])];
            tensor<int32, [2]> input_5_strides_0 = const()[name = tensor<string, []>("input_5_strides_0"), val = tensor<int32, [2]>([2, 2])];
            tensor<int32, [2]> input_5_dilations_0 = const()[name = tensor<string, []>("input_5_dilations_0"), val = tensor<int32, [2]>([1, 1])];
            tensor<int32, []> input_5_groups_0 = const()[name = tensor<string, []>("input_5_groups_0"), val = tensor<int32, []>(1)];
            tensor<fp16, [64, 32, 3, 3]> model_1_conv_weight_to_fp16 = const()[name = tensor<string, []>("model_1_conv_weight_to_fp16"), val = tensor<fp16, [64, 32, 3, 3]>(BLOBFILE(path = tensor<string, []>("@model_path/weights/weight.bin"), offset = tensor<uint64, []>(1984)))];
            tensor<fp16, [64]> model_1_conv_bias_to_fp16 = const()[name = tensor<string, []>("model_1_conv_bias_to_fp16"), val = tensor<fp16, [64]>(BLOBFILE(path = tensor<string, []>("@model_path/weights/weight.bin"), offset = tensor<uint64, []>(38912)))];
            tensor<fp16, [1, 64, 160, 160]> input_5_cast_fp16 = conv(bias = model_1_conv_bias_to_fp16, dilations = input_5_dilations_0, groups = input_5_groups_0, pad = input_5_pad_0, pad_type = input_5_pad_type_0, strides = input_5_strides_0, weight = model_1_conv_weight_to_fp16, x = input_3_cast_fp16)[name = tensor<string, []>("input_5_cast_fp16")];
            tensor<fp16, [1, 64, 160, 160]> input_7_cast_fp16 = silu(x = input_5_cast_fp16)[name = tensor<string, []>("input_7_cast_fp16")];
            tensor<int32, []> var_70 = const()[name = tensor<string, []>("op_70"), val = tensor<int32, []>(1)];
            tensor<string, []> input_9_pad_type_0 = const()[name = tensor<string, []>("input_9_pad_type_0"), val = tensor<string, []>("valid")];
            tensor<int32, [2]> input_9_strides_0 = const()[name = tensor<string, []>("input_9_strides_0"), val = tensor<int32, [2]>([1, 1])];
            tensor<int32, [4]> input_9_pad_0 = const()[name = tensor<string, []>("input_9_pad_0"), val = tensor<int32, [4]>([0, 0, 0, 0])];
            tensor<int32, [2]> input_9_dilations_0 = const()[name = tensor<string, []>("input_9_dilations_0"), val = tensor<int32, [2]>([1, 1])];
            tensor<int32, []> input_9_groups_0 = const()[name = tensor<string, []>("input_9_groups_0"), val = tensor<int32, []>(1)];
            tensor<fp16, [64, 64, 1, 1]> model_2_cv1_conv_weight_to_fp16 = const()[name = tensor<string, []>("model_2_cv1_conv_weight_to_fp16"), val = tensor<fp16, [64, 64, 1, 1]>(BLOBFILE(path = tensor<string, []>("@model_path/weights/weight.bin"), offset = tensor<uint64, []>(39104)))];
            tensor<fp16, [64]> model_2_cv1_conv_bias_to_fp16 = const()[name = tensor<string, []>("model_2_cv1_conv_bias_to_fp16"), val = tensor<fp16, [64]>(BLOBFILE(path = tensor<string, []>("@model_path/weights/weight.bin"), offset = tensor<uint64, []>(47360)))];
            tensor<fp16, [1, 64, 160, 160]> input_9_cast_fp16 = conv(bias = model_2_cv1_conv_bias_to_fp16, dilations = input_9_dilations_0, groups = input_9_groups_0, pad = input_9_pad_0, pad_type = input_9_pad_type_0, strides = input_9_strides_0, weight = model_2_cv1_conv_weight_to_fp16, x = input_7_cast_fp16)[name = tensor<string, []>("input_9_cast_fp16")];
            tensor<fp16, [1, 64, 160, 160]> var_83_cast_fp16 = silu(x = input_9_cast_fp16)[name = tensor<string, []>("op_83_cast_fp16")];
            tensor<int32, [2]> var_84 = const()[name = tensor<string, []>("op_84"), val = tensor<int32, [2]>([32, 32])];
            tensor<int32, []> var_85_axis_0 = const()[name = tensor<string, []>("op_85_axis_0"), val = tensor<int32, []>(1)];
            tensor<fp16, [1, 32, 160, 160]> var_85_cast_fp16_0, tensor<fp16, [1, 32, 160, 160]> var_85_cast_fp16_1 = split(axis = var_85_axis_0, split_sizes = var_84, x = var_83_cast_fp16)[name = tensor<string, []>("op_85_cast_fp16")];
            tensor<string, []> input_13_pad_type_0 = const()[name = tensor<string, []>("input_13_pad_type_0"), val = tensor<string, []>("custom")];
            tensor<int32, [4]> input_13_pad_0 = const()[name = tensor<string, []>("input_13_pad_0"), val = tensor<int32, [4]>([1, 1, 1, 1])];
            tensor<int32, [2]> input_13_strides_0 = const()[name = tensor<string, []>("input_13_strides_0"), val = tensor<int32, [2]>([1, 1])];
            tensor<int32, [2]> input_13_dilations_0 = const()[name = tensor<string, []>("input_13_dilations_0"), val = tensor<int32, [2]>([1, 1])];
            tensor<int32, []> input_13_groups_0 = const()[name = tensor<string, []>("input_13_groups_0"), val = tensor<int32, []>(1)];
            tensor<fp16, [16, 32, 3, 3]> model_2_m_0_cv1_conv_weight_to_fp16 = const()[name = tensor<string, []>("model_2_m_0_cv1_conv_weight_to_fp16"), val = tensor<fp16, [16, 32, 3, 3]>(BLOBFILE(path = tensor<string, []>("@model_path/weights/weight.bin"), offset = tensor<uint64, []>(47552)))];
            tensor<fp16, [16]> model_2_m_0_cv1_conv_bias_to_fp16 = const()[name = tensor<string, []>("model_2_m_0_cv1_conv_bias_to_fp16"), val = tensor<fp16, [16]>(BLOBFILE(path = tensor<string, []>("@model_path/weights/weight.bin"), offset = tensor<uint64, []>(56832)))];
            tensor<fp16, [1, 16, 160, 160]> input_13_cast_fp16 = conv(bias = model_2_m_0_cv1_conv_bias_to_fp16, dilations = input_13_dilations_0, groups = input_13_groups_0, pad = input_13_pad_0, pad_type = input_13_pad_type_0, strides = input_13_strides_0, weight = model_2_m_0_cv1_conv_weight_to_fp16, x = var_85_cast_fp16_1)[name = tensor<string, []>("input_13_cast_fp16")];
            tensor<fp16, [1, 16, 160, 160]> input_15_cast_fp16 = silu(x = input_13_cast_fp16)[name = tensor<string, []>("input_15_cast_fp16")];
            tensor<string, []> input_17_pad_type_0 = const()[name = tensor<string, []>("input_17_pad_type_0"), val = tensor<string, []>("custom")];
            tensor<int32, [4]> input_17_pad_0 = const()[name = tensor<string, []>("input_17_pad_0"), val = tensor<int32, [4]>([1, 1, 1, 1])];
            tensor<int32, [2]> input_17_strides_0 = const()[name = tensor<string, []>("input_17_strides_0"), val = tensor<int32, [2]>([1, 1])];
            tensor<int32, [2]> input_17_dilations_0 = const()[name = tensor<string, []>("input_17_dilations_0"), val = tensor<int32, [2]>([1, 1])];
            tensor<int32, []> input_17_groups_0 = const()[name = tensor<string, []>("input_17_groups_0"), val = tensor<int32, []>(1)];
            tensor<fp16, [32, 16, 3, 3]> model_2_m_0_cv2_conv_weight_to_fp16 = const()[name = tensor<string, []>("model_2_m_0_cv2_conv_weight_to_fp16"), val = tensor<fp16, [32, 16, 3, 3]>(BLOBFILE(path = tensor<string, []>("@model_path/weights/weight.bin"), offset = tensor<uint64, []>(56960)))];
            tensor<fp16, [32]> model_2_m_0_cv2_conv_bias_to_fp16 = const()[name = tensor<string, []>("model_2_m_0_cv2_conv_bias_to_fp16"), val = tensor<fp16, [32]>(BLOBFILE(path = tensor<string, []>("@model_path/weights/weight.bin"), offset = tensor<uint64, []>(66240)))];
            tensor<fp16, [1, 32, 160, 160]> input_17_cast_fp16 = conv(bias = model_2_m_0_cv2_conv_bias_to_fp16, dilations = input_17_dilations_0, groups = input_17_groups_0, pad = input_17_pad_0, pad_type = input_17_pad_type_0, strides = input_17_strides_0, weight = model_2_m_0_cv2_conv_weight_to_fp16, x = input_15_cast_fp16)[name = tensor<string, []>("input_17_cast_fp16")];
            tensor<fp16, [1, 32, 160, 160]> var_107_cast_fp16 = silu(x = input_17_cast_fp16)[name = tensor<string, []>("op_107_cast_fp16")];
            tensor<fp16, [1, 32, 160, 160]> var_108_cast_fp16 = add(x = var_85_cast_fp16_1, y = var_107_cast_fp16)[name = tensor<string, []>("op_108_cast_fp16")];
            tensor<bool, []> input_19_interleave_0 = const()[name = tensor<string, []>("input_19_interleave_0"), val = tensor<bool, []>(false)];
            tensor<fp16, [1, 96, 160, 160]> input_19_cast_fp16 = concat(axis = var_70, interleave = input_19_interleave_0, values = (var_85_cast_fp16_0, var_85_cast_fp16_1, var_108_cast_fp16))[name = tensor<string, []>("input_19_cast_fp16")];
            tensor<string, []> input_21_pad_type_0 = const()[name = tensor<string, []>("input_21_pad_type_0"), val = tensor<string, []>("valid")];
            tensor<int32, [2]> input_21_strides_0 = const()[name = tensor<string, []>("input_21_strides_0"), val = tensor<int32, [2]>([1, 1])];
            tensor<int32, [4]> input_21_pad_0 = const()[name = tensor<string, []>("input_21_pad_0"), val = tensor<int32, [4]>([0, 0, 0, 0])];
            tensor<int32, [2]> input_21_dilations_0 = const()[name = tensor<string, []>("input_21_dilations_0"), val = tensor<int32, [2]>([1, 1])];
            tensor<int32, []> input_21_groups_0 = const()[name = tensor<string, []>("input_21_groups_0"), val = tensor<int32, []>(1)];
            tensor<fp16, [128, 96, 1, 1]> model_2_cv2_conv_weight_to_fp16 = const()[name = tensor<string, []>("model_2_cv2_conv_weight_to_fp16"), val = tensor<fp16, [128, 96, 1, 1]>(BLOBFILE(path = tensor<string, []>("@model_path/weights/weight.bin"), offset = tensor<uint64, []>(66368)))];
            tensor<fp16, [128]> model_2_cv2_conv_bias_to_fp16 = const()[name = tensor<string, []>("model_2_cv2_conv_bias_to_fp16"), val = tensor<fp16, [128]>(BLOBFILE(path = tensor<string, []>("@model_path/weights/weight.bin"), offset = tensor<uint64, []>(91008)))];
            tensor<fp16, [1, 128, 160, 160]> input_21_cast_fp16 = conv(bias = model_2_cv2_conv_bias_to_fp16, dilations = input_21_dilations_0, groups = input_21_groups_0, pad = input_21_pad_0, pad_type = input_21_pad_type_0, strides = input_21_strides_0, weight = model_2_cv2_conv_weight_to_fp16, x = input_19_cast_fp16)[name = tensor<string, []>("input_21_cast_fp16")];
            tensor<fp16, [1, 128, 160, 160]> input_23_cast_fp16 = silu(x = input_21_cast_fp16)[name = tensor<string, []>("input_23_cast_fp16")];
            tensor<string, []> input_25_pad_type_0 = const()[name = tensor<string, []>("input_25_pad_type_0"), val = tensor<string, []>("custom")];
            tensor<int32, [4]> input_25_pad_0 = const()[name = tensor<string, []>("input_25_pad_0"), val = tensor<int32, [4]>([1, 1, 1, 1])];
            tensor<int32, [2]> input_25_strides_0 = const()[name = tensor<string, []>("input_25_strides_0"), val = tensor<int32, [2]>([2, 2])];
            tensor<int32, [2]> input_25_dilations_0 = const()[name = tensor<string, []>("input_25_dilations_0"), val = tensor<int32, [2]>([1, 1])];
            tensor<int32, []> input_25_groups_0 = const()[name = tensor<string, []>("input_25_groups_0"), val = tensor<int32, []>(1)];
            tensor<fp16, [128, 128, 3, 3]> model_3_conv_weight_to_fp16 = const()[name = tensor<string, []>("model_3_conv_weight_to_fp16"), val = tensor<fp16, [128, 128, 3, 3]>(BLOBFILE(path = tensor<string, []>("@model_path/weights/weight.bin"), offset = tensor<uint64, []>(91328)))];
            tensor<fp16, [128]> model_3_conv_bias_to_fp16 = const()[name = tensor<string, []>("model_3_conv_bias_to_fp16"), val = tensor<fp16, [128]>(BLOBFILE(path = tensor<string, []>("@model_path/weights/weight.bin"), offset = tensor<uint64, []>(386304)))];
            tensor<fp16, [1, 128, 80, 80]> input_25_cast_fp16 = conv(bias = model_3_conv_bias_to_fp16, dilations = input_25_dilations_0, groups = input_25_groups_0, pad = input_25_pad_0, pad_type = input_25_pad_type_0, strides = input_25_strides_0, weight = model_3_conv_weight_to_fp16, x = input_23_cast_fp16)[name = tensor<string, []>("input_25_cast_fp16")];
            tensor<fp16, [1, 128, 80, 80]> input_27_cast_fp16 = silu(x = input_25_cast_fp16)[name = tensor<string, []>("input_27_cast_fp16")];
            tensor<int32, []> var_138 = const()[name = tensor<string, []>("op_138"), val = tensor<int32, []>(1)];
            tensor<string, []> input_29_pad_type_0 = const()[name = tensor<string, []>("input_29_pad_type_0"), val = tensor<string, []>("valid")];
            tensor<int32, [2]> input_29_strides_0 = const()[name = tensor<string, []>("input_29_strides_0"), val = tensor<int32, [2]>([1, 1])];
            tensor<int32, [4]> input_29_pad_0 = const()[name = tensor<string, []>("input_29_pad_0"), val = tensor<int32, [4]>([0, 0, 0, 0])];
            tensor<int32, [2]> input_29_dilations_0 = const()[name = tensor<string, []>("input_29_dilations_0"), val = tensor<int32, [2]>([1, 1])];
            tensor<int32, []> input_29_groups_0 = const()[name = tensor<string, []>("input_29_groups_0"), val = tensor<int32, []>(1)];
            tensor<fp16, [128, 128, 1, 1]> model_4_cv1_conv_weight_to_fp16 = const()[name = tensor<string, []>("model_4_cv1_conv_weight_to_fp16"), val = tensor<fp16, [128, 128, 1, 1]>(BLOBFILE(path = tensor<string, []>("@model_path/weights/weight.bin"), offset = tensor<uint64, []>(386624)))];
            tensor<fp16, [128]> model_4_cv1_conv_bias_to_fp16 = const()[name = tensor<string, []>("model_4_cv1_conv_bias_to_fp16"), val = tensor<fp16, [128]>(BLOBFILE(path = tensor<string, []>("@model_path/weights/weight.bin"), offset = tensor<uint64, []>(419456)))];
            tensor<fp16, [1, 128, 80, 80]> input_29_cast_fp16 = conv(bias = model_4_cv1_conv_bias_to_fp16, dilations = input_29_dilations_0, groups = input_29_groups_0, pad = input_29_pad_0, pad_type = input_29_pad_type_0, strides = input_29_strides_0, weight = model_4_cv1_conv_weight_to_fp16, x = input_27_cast_fp16)[name = tensor<string, []>("input_29_cast_fp16")];
            tensor<fp16, [1, 128, 80, 80]> var_151_cast_fp16 = silu(x = input_29_cast_fp16)[name = tensor<string, []>("op_151_cast_fp16")];
            tensor<int32, [2]> var_152 = const()[name = tensor<string, []>("op_152"), val = tensor<int32, [2]>([64, 64])];
            tensor<int32, []> var_153_axis_0 = const()[name = tensor<string, []>("op_153_axis_0"), val = tensor<int32, []>(1)];
            tensor<fp16, [1, 64, 80, 80]> var_153_cast_fp16_0, tensor<fp16, [1, 64, 80, 80]> var_153_cast_fp16_1 = split(axis = var_153_axis_0, split_sizes = var_152, x = var_151_cast_fp16)[name = tensor<string, []>("op_153_cast_fp16")];
            tensor<string, []> input_33_pad_type_0 = const()[name = tensor<string, []>("input_33_pad_type_0"), val = tensor<string, []>("custom")];
            tensor<int32, [4]> input_33_pad_0 = const()[name = tensor<string, []>("input_33_pad_0"), val = tensor<int32, [4]>([1, 1, 1, 1])];
            tensor<int32, [2]> input_33_strides_0 = const()[name = tensor<string, []>("input_33_strides_0"), val = tensor<int32, [2]>([1, 1])];
            tensor<int32, [2]> input_33_dilations_0 = const()[name = tensor<string, []>("input_33_dilations_0"), val = tensor<int32, [2]>([1, 1])];
            tensor<int32, []> input_33_groups_0 = const()[name = tensor<string, []>("input_33_groups_0"), val = tensor<int32, []>(1)];
            tensor<fp16, [32, 64, 3, 3]> model_4_m_0_cv1_conv_weight_to_fp16 = const()[name = tensor<string, []>("model_4_m_0_cv1_conv_weight_to_fp16"), val = tensor<fp16, [32, 64, 3, 3]>(BLOBFILE(path = tensor<string, []>("@model_path/weights/weight.bin"), offset = tensor<uint64, []>(419776)))];
            tensor<fp16, [32]> model_4_m_0_cv1_conv_bias_to_fp16 = const()[name = tensor<string, []>("model_4_m_0_cv1_conv_bias_to_fp16"), val = tensor<fp16, [32]>(BLOBFILE(path = tensor<string, []>("@model_path/weights/weight.bin"), offset = tensor<uint64, []>(456704)))];
            tensor<fp16, [1, 32, 80, 80]> input_33_cast_fp16 = conv(bias = model_4_m_0_cv1_conv_bias_to_fp16, dilations = input_33_dilations_0, groups = input_33_groups_0, pad = input_33_pad_0, pad_type = input_33_pad_type_0, strides = input_33_strides_0, weight = model_4_m_0_cv1_conv_weight_to_fp16, x = var_153_cast_fp16_1)[name = tensor<string, []>("input_33_cast_fp16")];
            tensor<fp16, [1, 32, 80, 80]> input_35_cast_fp16 = silu(x = input_33_cast_fp16)[name = tensor<string, []>("input_35_cast_fp16")];
            tensor<string, []> input_37_pad_type_0 = const()[name = tensor<string, []>("input_37_pad_type_0"), val = tensor<string, []>("custom")];
            tensor<int32, [4]> input_37_pad_0 = const()[name = tensor<string, []>("input_37_pad_0"), val = tensor<int32, [4]>([1, 1, 1, 1])];
            tensor<int32, [2]> input_37_strides_0 = const()[name = tensor<string, []>("input_37_strides_0"), val = tensor<int32, [2]>([1, 1])];
            tensor<int32, [2]> input_37_dilations_0 = const()[name = tensor<string, []>("input_37_dilations_0"), val = tensor<int32, [2]>([1, 1])];
            tensor<int32, []> input_37_groups_0 = const()[name = tensor<string, []>("input_37_groups_0"), val = tensor<int32, []>(1)];
            tensor<fp16, [64, 32, 3, 3]> model_4_m_0_cv2_conv_weight_to_fp16 = const()[name = tensor<string, []>("model_4_m_0_cv2_conv_weight_to_fp16"), val = tensor<fp16, [64, 32, 3, 3]>(BLOBFILE(path = tensor<string, []>("@model_path/weights/weight.bin"), offset = tensor<uint64, []>(456832)))];
            tensor<fp16, [64]> model_4_m_0_cv2_conv_bias_to_fp16 = const()[name = tensor<string, []>("model_4_m_0_cv2_conv_bias_to_fp16"), val = tensor<fp16, [64]>(BLOBFILE(path = tensor<string, []>("@model_path/weights/weight.bin"), offset = tensor<uint64, []>(493760)))];
            tensor<fp16, [1, 64, 80, 80]> input_37_cast_fp16 = conv(bias = model_4_m_0_cv2_conv_bias_to_fp16, dilations = input_37_dilations_0, groups = input_37_groups_0, pad = input_37_pad_0, pad_type = input_37_pad_type_0, strides = input_37_strides_0, weight = model_4_m_0_cv2_conv_weight_to_fp16, x = input_35_cast_fp16)[name = tensor<string, []>("input_37_cast_fp16")];
            tensor<fp16, [1, 64, 80, 80]> var_175_cast_fp16 = silu(x = input_37_cast_fp16)[name = tensor<string, []>("op_175_cast_fp16")];
            tensor<fp16, [1, 64, 80, 80]> var_176_cast_fp16 = add(x = var_153_cast_fp16_1, y = var_175_cast_fp16)[name = tensor<string, []>("op_176_cast_fp16")];
            tensor<bool, []> input_39_interleave_0 = const()[name = tensor<string, []>("input_39_interleave_0"), val = tensor<bool, []>(false)];
            tensor<fp16, [1, 192, 80, 80]> input_39_cast_fp16 = concat(axis = var_138, interleave = input_39_interleave_0, values = (var_153_cast_fp16_0, var_153_cast_fp16_1, var_176_cast_fp16))[name = tensor<string, []>("input_39_cast_fp16")];
            tensor<string, []> input_41_pad_type_0 = const()[name = tensor<string, []>("input_41_pad_type_0"), val = tensor<string, []>("valid")];
            tensor<int32, [2]> input_41_strides_0 = const()[name = tensor<string, []>("input_41_strides_0"), val = tensor<int32, [2]>([1, 1])];
            tensor<int32, [4]> input_41_pad_0 = const()[name = tensor<string, []>("input_41_pad_0"), val = tensor<int32, [4]>([0, 0, 0, 0])];
            tensor<int32, [2]> input_41_dilations_0 = const()[name = tensor<string, []>("input_41_dilations_0"), val = tensor<int32, [2]>([1, 1])];
            tensor<int32, []> input_41_groups_0 = const()[name = tensor<string, []>("input_41_groups_0"), val = tensor<int32, []>(1)];
            tensor<fp16, [256, 192, 1, 1]> model_4_cv2_conv_weight_to_fp16 = const()[name = tensor<string, []>("model_4_cv2_conv_weight_to_fp16"), val = tensor<fp16, [256, 192, 1, 1]>(BLOBFILE(path = tensor<string, []>("@model_path/weights/weight.bin"), offset = tensor<uint64, []>(493952)))];
            tensor<fp16, [256]> model_4_cv2_conv_bias_to_fp16 = const()[name = tensor<string, []>("model_4_cv2_conv_bias_to_fp16"), val = tensor<fp16, [256]>(BLOBFILE(path = tensor<string, []>("@model_path/weights/weight.bin"), offset = tensor<uint64, []>(592320)))];
            tensor<fp16, [1, 256, 80, 80]> input_41_cast_fp16 = conv(bias = model_4_cv2_conv_bias_to_fp16, dilations = input_41_dilations_0, groups = input_41_groups_0, pad = input_41_pad_0, pad_type = input_41_pad_type_0, strides = input_41_strides_0, weight = model_4_cv2_conv_weight_to_fp16, x = input_39_cast_fp16)[name = tensor<string, []>("input_41_cast_fp16")];
            tensor<fp16, [1, 256, 80, 80]> input_43_cast_fp16 = silu(x = input_41_cast_fp16)[name = tensor<string, []>("input_43_cast_fp16")];
            tensor<string, []> input_45_pad_type_0 = const()[name = tensor<string, []>("input_45_pad_type_0"), val = tensor<string, []>("custom")];
            tensor<int32, [4]> input_45_pad_0 = const()[name = tensor<string, []>("input_45_pad_0"), val = tensor<int32, [4]>([1, 1, 1, 1])];
            tensor<int32, [2]> input_45_strides_0 = const()[name = tensor<string, []>("input_45_strides_0"), val = tensor<int32, [2]>([2, 2])];
            tensor<int32, [2]> input_45_dilations_0 = const()[name = tensor<string, []>("input_45_dilations_0"), val = tensor<int32, [2]>([1, 1])];
            tensor<int32, []> input_45_groups_0 = const()[name = tensor<string, []>("input_45_groups_0"), val = tensor<int32, []>(1)];
            tensor<fp16, [256, 256, 3, 3]> model_5_conv_weight_to_fp16 = const()[name = tensor<string, []>("model_5_conv_weight_to_fp16"), val = tensor<fp16, [256, 256, 3, 3]>(BLOBFILE(path = tensor<string, []>("@model_path/weights/weight.bin"), offset = tensor<uint64, []>(592896)))];
            tensor<fp16, [256]> model_5_conv_bias_to_fp16 = const()[name = tensor<string, []>("model_5_conv_bias_to_fp16"), val = tensor<fp16, [256]>(BLOBFILE(path = tensor<string, []>("@model_path/weights/weight.bin"), offset = tensor<uint64, []>(1772608)))];
            tensor<fp16, [1, 256, 40, 40]> input_45_cast_fp16 = conv(bias = model_5_conv_bias_to_fp16, dilations = input_45_dilations_0, groups = input_45_groups_0, pad = input_45_pad_0, pad_type = input_45_pad_type_0, strides = input_45_strides_0, weight = model_5_conv_weight_to_fp16, x = input_43_cast_fp16)[name = tensor<string, []>("input_45_cast_fp16")];
            tensor<fp16, [1, 256, 40, 40]> input_47_cast_fp16 = silu(x = input_45_cast_fp16)[name = tensor<string, []>("input_47_cast_fp16")];
            tensor<int32, []> var_206 = const()[name = tensor<string, []>("op_206"), val = tensor<int32, []>(1)];
            tensor<string, []> input_49_pad_type_0 = const()[name = tensor<string, []>("input_49_pad_type_0"), val = tensor<string, []>("valid")];
            tensor<int32, [2]> input_49_strides_0 = const()[name = tensor<string, []>("input_49_strides_0"), val = tensor<int32, [2]>([1, 1])];
            tensor<int32, [4]> input_49_pad_0 = const()[name = tensor<string, []>("input_49_pad_0"), val = tensor<int32, [4]>([0, 0, 0, 0])];
            tensor<int32, [2]> input_49_dilations_0 = const()[name = tensor<string, []>("input_49_dilations_0"), val = tensor<int32, [2]>([1, 1])];
            tensor<int32, []> input_49_groups_0 = const()[name = tensor<string, []>("input_49_groups_0"), val = tensor<int32, []>(1)];
            tensor<fp16, [256, 256, 1, 1]> model_6_cv1_conv_weight_to_fp16 = const()[name = tensor<string, []>("model_6_cv1_conv_weight_to_fp16"), val = tensor<fp16, [256, 256, 1, 1]>(BLOBFILE(path = tensor<string, []>("@model_path/weights/weight.bin"), offset = tensor<uint64, []>(1773184)))];
            tensor<fp16, [256]> model_6_cv1_conv_bias_to_fp16 = const()[name = tensor<string, []>("model_6_cv1_conv_bias_to_fp16"), val = tensor<fp16, [256]>(BLOBFILE(path = tensor<string, []>("@model_path/weights/weight.bin"), offset = tensor<uint64, []>(1904320)))];
            tensor<fp16, [1, 256, 40, 40]> input_49_cast_fp16 = conv(bias = model_6_cv1_conv_bias_to_fp16, dilations = input_49_dilations_0, groups = input_49_groups_0, pad = input_49_pad_0, pad_type = input_49_pad_type_0, strides = input_49_strides_0, weight = model_6_cv1_conv_weight_to_fp16, x = input_47_cast_fp16)[name = tensor<string, []>("input_49_cast_fp16")];
            tensor<fp16, [1, 256, 40, 40]> var_219_cast_fp16 = silu(x = input_49_cast_fp16)[name = tensor<string, []>("op_219_cast_fp16")];
            tensor<int32, [2]> var_220 = const()[name = tensor<string, []>("op_220"), val = tensor<int32, [2]>([128, 128])];
            tensor<int32, []> var_221_axis_0 = const()[name = tensor<string, []>("op_221_axis_0"), val = tensor<int32, []>(1)];
            tensor<fp16, [1, 128, 40, 40]> var_221_cast_fp16_0, tensor<fp16, [1, 128, 40, 40]> var_221_cast_fp16_1 = split(axis = var_221_axis_0, split_sizes = var_220, x = var_219_cast_fp16)[name = tensor<string, []>("op_221_cast_fp16")];
            tensor<string, []> input_53_pad_type_0 = const()[name = tensor<string, []>("input_53_pad_type_0"), val = tensor<string, []>("valid")];
            tensor<int32, [2]> input_53_strides_0 = const()[name = tensor<string, []>("input_53_strides_0"), val = tensor<int32, [2]>([1, 1])];
            tensor<int32, [4]> input_53_pad_0 = const()[name = tensor<string, []>("input_53_pad_0"), val = tensor<int32, [4]>([0, 0, 0, 0])];
            tensor<int32, [2]> input_53_dilations_0 = const()[name = tensor<string, []>("input_53_dilations_0"), val = tensor<int32, [2]>([1, 1])];
            tensor<int32, []> input_53_groups_0 = const()[name = tensor<string, []>("input_53_groups_0"), val = tensor<int32, []>(1)];
            tensor<fp16, [64, 128, 1, 1]> model_6_m_0_cv1_conv_weight_to_fp16 = const()[name = tensor<string, []>("model_6_m_0_cv1_conv_weight_to_fp16"), val = tensor<fp16, [64, 128, 1, 1]>(BLOBFILE(path = tensor<string, []>("@model_path/weights/weight.bin"), offset = tensor<uint64, []>(1904896)))];
            tensor<fp16, [64]> model_6_m_0_cv1_conv_bias_to_fp16 = const()[name = tensor<string, []>("model_6_m_0_cv1_conv_bias_to_fp16"), val = tensor<fp16, [64]>(BLOBFILE(path = tensor<string, []>("@model_path/weights/weight.bin"), offset = tensor<uint64, []>(1921344)))];
            tensor<fp16, [1, 64, 40, 40]> input_53_cast_fp16 = conv(bias = model_6_m_0_cv1_conv_bias_to_fp16, dilations = input_53_dilations_0, groups = input_53_groups_0, pad = input_53_pad_0, pad_type = input_53_pad_type_0, strides = input_53_strides_0, weight = model_6_m_0_cv1_conv_weight_to_fp16, x = var_221_cast_fp16_1)[name = tensor<string, []>("input_53_cast_fp16")];
            tensor<fp16, [1, 64, 40, 40]> input_55_cast_fp16 = silu(x = input_53_cast_fp16)[name = tensor<string, []>("input_55_cast_fp16")];
            tensor<string, []> input_57_pad_type_0 = const()[name = tensor<string, []>("input_57_pad_type_0"), val = tensor<string, []>("custom")];
            tensor<int32, [4]> input_57_pad_0 = const()[name = tensor<string, []>("input_57_pad_0"), val = tensor<int32, [4]>([1, 1, 1, 1])];
            tensor<int32, [2]> input_57_strides_0 = const()[name = tensor<string, []>("input_57_strides_0"), val = tensor<int32, [2]>([1, 1])];
            tensor<int32, [2]> input_57_dilations_0 = const()[name = tensor<string, []>("input_57_dilations_0"), val = tensor<int32, [2]>([1, 1])];
            tensor<int32, []> input_57_groups_0 = const()[name = tensor<string, []>("input_57_groups_0"), val = tensor<int32, []>(1)];
            tensor<fp16, [64, 64, 3, 3]> model_6_m_0_m_0_cv1_conv_weight_to_fp16 = const()[name = tensor<string, []>("model_6_m_0_m_0_cv1_conv_weight_to_fp16"), val = tensor<fp16, [64, 64, 3, 3]>(BLOBFILE(path = tensor<string, []>("@model_path/weights/weight.bin"), offset = tensor<uint64, []>(1921536)))];
            tensor<fp16, [64]> model_6_m_0_m_0_cv1_conv_bias_to_fp16 = const()[name = tensor<string, []>("model_6_m_0_m_0_cv1_conv_bias_to_fp16"), val = tensor<fp16, [64]>(BLOBFILE(path = tensor<string, []>("@model_path/weights/weight.bin"), offset = tensor<uint64, []>(1995328)))];
            tensor<fp16, [1, 64, 40, 40]> input_57_cast_fp16 = conv(bias = model_6_m_0_m_0_cv1_conv_bias_to_fp16, dilations = input_57_dilations_0, groups = input_57_groups_0, pad = input_57_pad_0, pad_type = input_57_pad_type_0, strides = input_57_strides_0, weight = model_6_m_0_m_0_cv1_conv_weight_to_fp16, x = input_55_cast_fp16)[name = tensor<string, []>("input_57_cast_fp16")];
            tensor<fp16, [1, 64, 40, 40]> input_59_cast_fp16 = silu(x = input_57_cast_fp16)[name = tensor<string, []>("input_59_cast_fp16")];
            tensor<string, []> input_61_pad_type_0 = const()[name = tensor<string, []>("input_61_pad_type_0"), val = tensor<string, []>("custom")];
            tensor<int32, [4]> input_61_pad_0 = const()[name = tensor<string, []>("input_61_pad_0"), val = tensor<int32, [4]>([1, 1, 1, 1])];
            tensor<int32, [2]> input_61_strides_0 = const()[name = tensor<string, []>("input_61_strides_0"), val = tensor<int32, [2]>([1, 1])];
            tensor<int32, [2]> input_61_dilations_0 = const()[name = tensor<string, []>("input_61_dilations_0"), val = tensor<int32, [2]>([1, 1])];
            tensor<int32, []> input_61_groups_0 = const()[name = tensor<string, []>("input_61_groups_0"), val = tensor<int32, []>(1)];
            tensor<fp16, [64, 64, 3, 3]> model_6_m_0_m_0_cv2_conv_weight_to_fp16 = const()[name = tensor<string, []>("model_6_m_0_m_0_cv2_conv_weight_to_fp16"), val = tensor<fp16, [64, 64, 3, 3]>(BLOBFILE(path = tensor<string, []>("@model_path/weights/weight.bin"), offset = tensor<uint64, []>(1995520)))];
            tensor<fp16, [64]> model_6_m_0_m_0_cv2_conv_bias_to_fp16 = const()[name = tensor<string, []>("model_6_m_0_m_0_cv2_conv_bias_to_fp16"), val = tensor<fp16, [64]>(BLOBFILE(path = tensor<string, []>("@model_path/weights/weight.bin"), offset = tensor<uint64, []>(2069312)))];
            tensor<fp16, [1, 64, 40, 40]> input_61_cast_fp16 = conv(bias = model_6_m_0_m_0_cv2_conv_bias_to_fp16, dilations = input_61_dilations_0, groups = input_61_groups_0, pad = input_61_pad_0, pad_type = input_61_pad_type_0, strides = input_61_strides_0, weight = model_6_m_0_m_0_cv2_conv_weight_to_fp16, x = input_59_cast_fp16)[name = tensor<string, []>("input_61_cast_fp16")];
            tensor<fp16, [1, 64, 40, 40]> var_258_cast_fp16 = silu(x = input_61_cast_fp16)[name = tensor<string, []>("op_258_cast_fp16")];
            tensor<fp16, [1, 64, 40, 40]> input_63_cast_fp16 = add(x = input_55_cast_fp16, y = var_258_cast_fp16)[name = tensor<string, []>("input_63_cast_fp16")];
            tensor<string, []> input_65_pad_type_0 = const()[name = tensor<string, []>("input_65_pad_type_0"), val = tensor<string, []>("custom")];
            tensor<int32, [4]> input_65_pad_0 = const()[name = tensor<string, []>("input_65_pad_0"), val = tensor<int32, [4]>([1, 1, 1, 1])];
            tensor<int32, [2]> input_65_strides_0 = const()[name = tensor<string, []>("input_65_strides_0"), val = tensor<int32, [2]>([1, 1])];
            tensor<int32, [2]> input_65_dilations_0 = const()[name = tensor<string, []>("input_65_dilations_0"), val = tensor<int32, [2]>([1, 1])];
            tensor<int32, []> input_65_groups_0 = const()[name = tensor<string, []>("input_65_groups_0"), val = tensor<int32, []>(1)];
            tensor<fp16, [64, 64, 3, 3]> model_6_m_0_m_1_cv1_conv_weight_to_fp16 = const()[name = tensor<string, []>("model_6_m_0_m_1_cv1_conv_weight_to_fp16"), val = tensor<fp16, [64, 64, 3, 3]>(BLOBFILE(path = tensor<string, []>("@model_path/weights/weight.bin"), offset = tensor<uint64, []>(2069504)))];
            tensor<fp16, [64]> model_6_m_0_m_1_cv1_conv_bias_to_fp16 = const()[name = tensor<string, []>("model_6_m_0_m_1_cv1_conv_bias_to_fp16"), val = tensor<fp16, [64]>(BLOBFILE(path = tensor<string, []>("@model_path/weights/weight.bin"), offset = tensor<uint64, []>(2143296)))];
            tensor<fp16, [1, 64, 40, 40]> input_65_cast_fp16 = conv(bias = model_6_m_0_m_1_cv1_conv_bias_to_fp16, dilations = input_65_dilations_0, groups = input_65_groups_0, pad = input_65_pad_0, pad_type = input_65_pad_type_0, strides = input_65_strides_0, weight = model_6_m_0_m_1_cv1_conv_weight_to_fp16, x = input_63_cast_fp16)[name = tensor<string, []>("input_65_cast_fp16")];
            tensor<fp16, [1, 64, 40, 40]> input_67_cast_fp16 = silu(x = input_65_cast_fp16)[name = tensor<string, []>("input_67_cast_fp16")];
            tensor<string, []> input_69_pad_type_0 = const()[name = tensor<string, []>("input_69_pad_type_0"), val = tensor<string, []>("custom")];
            tensor<int32, [4]> input_69_pad_0 = const()[name = tensor<string, []>("input_69_pad_0"), val = tensor<int32, [4]>([1, 1, 1, 1])];
            tensor<int32, [2]> input_69_strides_0 = const()[name = tensor<string, []>("input_69_strides_0"), val = tensor<int32, [2]>([1, 1])];
            tensor<int32, [2]> input_69_dilations_0 = const()[name = tensor<string, []>("input_69_dilations_0"), val = tensor<int32, [2]>([1, 1])];
            tensor<int32, []> input_69_groups_0 = const()[name = tensor<string, []>("input_69_groups_0"), val = tensor<int32, []>(1)];
            tensor<fp16, [64, 64, 3, 3]> model_6_m_0_m_1_cv2_conv_weight_to_fp16 = const()[name = tensor<string, []>("model_6_m_0_m_1_cv2_conv_weight_to_fp16"), val = tensor<fp16, [64, 64, 3, 3]>(BLOBFILE(path = tensor<string, []>("@model_path/weights/weight.bin"), offset = tensor<uint64, []>(2143488)))];
            tensor<fp16, [64]> model_6_m_0_m_1_cv2_conv_bias_to_fp16 = const()[name = tensor<string, []>("model_6_m_0_m_1_cv2_conv_bias_to_fp16"), val = tensor<fp16, [64]>(BLOBFILE(path = tensor<string, []>("@model_path/weights/weight.bin"), offset = tensor<uint64, []>(2217280)))];
            tensor<fp16, [1, 64, 40, 40]> input_69_cast_fp16 = conv(bias = model_6_m_0_m_1_cv2_conv_bias_to_fp16, dilations = input_69_dilations_0, groups = input_69_groups_0, pad = input_69_pad_0, pad_type = input_69_pad_type_0, strides = input_69_strides_0, weight = model_6_m_0_m_1_cv2_conv_weight_to_fp16, x = input_67_cast_fp16)[name = tensor<string, []>("input_69_cast_fp16")];
            tensor<fp16, [1, 64, 40, 40]> var_279_cast_fp16 = silu(x = input_69_cast_fp16)[name = tensor<string, []>("op_279_cast_fp16")];
            tensor<fp16, [1, 64, 40, 40]> var_280_cast_fp16 = add(x = input_63_cast_fp16, y = var_279_cast_fp16)[name = tensor<string, []>("op_280_cast_fp16")];
            tensor<string, []> input_71_pad_type_0 = const()[name = tensor<string, []>("input_71_pad_type_0"), val = tensor<string, []>("valid")];
            tensor<int32, [2]> input_71_strides_0 = const()[name = tensor<string, []>("input_71_strides_0"), val = tensor<int32, [2]>([1, 1])];
            tensor<int32, [4]> input_71_pad_0 = const()[name = tensor<string, []>("input_71_pad_0"), val = tensor<int32, [4]>([0, 0, 0, 0])];
            tensor<int32, [2]> input_71_dilations_0 = const()[name = tensor<string, []>("input_71_dilations_0"), val = tensor<int32, [2]>([1, 1])];
            tensor<int32, []> input_71_groups_0 = const()[name = tensor<string, []>("input_71_groups_0"), val = tensor<int32, []>(1)];
            tensor<fp16, [64, 128, 1, 1]> model_6_m_0_cv2_conv_weight_to_fp16 = const()[name = tensor<string, []>("model_6_m_0_cv2_conv_weight_to_fp16"), val = tensor<fp16, [64, 128, 1, 1]>(BLOBFILE(path = tensor<string, []>("@model_path/weights/weight.bin"), offset = tensor<uint64, []>(2217472)))];
            tensor<fp16, [64]> model_6_m_0_cv2_conv_bias_to_fp16 = const()[name = tensor<string, []>("model_6_m_0_cv2_conv_bias_to_fp16"), val = tensor<fp16, [64]>(BLOBFILE(path = tensor<string, []>("@model_path/weights/weight.bin"), offset = tensor<uint64, []>(2233920)))];
            tensor<fp16, [1, 64, 40, 40]> input_71_cast_fp16 = conv(bias = model_6_m_0_cv2_conv_bias_to_fp16, dilations = input_71_dilations_0, groups = input_71_groups_0, pad = input_71_pad_0, pad_type = input_71_pad_type_0, strides = input_71_strides_0, weight = model_6_m_0_cv2_conv_weight_to_fp16, x = var_221_cast_fp16_1)[name = tensor<string, []>("input_71_cast_fp16")];
            tensor<fp16, [1, 64, 40, 40]> var_289_cast_fp16 = silu(x = input_71_cast_fp16)[name = tensor<string, []>("op_289_cast_fp16")];
            tensor<bool, []> input_73_interleave_0 = const()[name = tensor<string, []>("input_73_interleave_0"), val = tensor<bool, []>(false)];
            tensor<fp16, [1, 128, 40, 40]> input_73_cast_fp16 = concat(axis = var_206, interleave = input_73_interleave_0, values = (var_280_cast_fp16, var_289_cast_fp16))[name = tensor<string, []>("input_73_cast_fp16")];
            tensor<string, []> input_75_pad_type_0 = const()[name = tensor<string, []>("input_75_pad_type_0"), val = tensor<string, []>("valid")];
            tensor<int32, [2]> input_75_strides_0 = const()[name = tensor<string, []>("input_75_strides_0"), val = tensor<int32, [2]>([1, 1])];
            tensor<int32, [4]> input_75_pad_0 = const()[name = tensor<string, []>("input_75_pad_0"), val = tensor<int32, [4]>([0, 0, 0, 0])];
            tensor<int32, [2]> input_75_dilations_0 = const()[name = tensor<string, []>("input_75_dilations_0"), val = tensor<int32, [2]>([1, 1])];
            tensor<int32, []> input_75_groups_0 = const()[name = tensor<string, []>("input_75_groups_0"), val = tensor<int32, []>(1)];
            tensor<fp16, [128, 128, 1, 1]> model_6_m_0_cv3_conv_weight_to_fp16 = const()[name = tensor<string, []>("model_6_m_0_cv3_conv_weight_to_fp16"), val = tensor<fp16, [128, 128, 1, 1]>(BLOBFILE(path = tensor<string, []>("@model_path/weights/weight.bin"), offset = tensor<uint64, []>(2234112)))];
            tensor<fp16, [128]> model_6_m_0_cv3_conv_bias_to_fp16 = const()[name = tensor<string, []>("model_6_m_0_cv3_conv_bias_to_fp16"), val = tensor<fp16, [128]>(BLOBFILE(path = tensor<string, []>("@model_path/weights/weight.bin"), offset = tensor<uint64, []>(2266944)))];
            tensor<fp16, [1, 128, 40, 40]> input_75_cast_fp16 = conv(bias = model_6_m_0_cv3_conv_bias_to_fp16, dilations = input_75_dilations_0, groups = input_75_groups_0, pad = input_75_pad_0, pad_type = input_75_pad_type_0, strides = input_75_strides_0, weight = model_6_m_0_cv3_conv_weight_to_fp16, x = input_73_cast_fp16)[name = tensor<string, []>("input_75_cast_fp16")];
            tensor<fp16, [1, 128, 40, 40]> var_300_cast_fp16 = silu(x = input_75_cast_fp16)[name = tensor<string, []>("op_300_cast_fp16")];
            tensor<bool, []> input_77_interleave_0 = const()[name = tensor<string, []>("input_77_interleave_0"), val = tensor<bool, []>(false)];
            tensor<fp16, [1, 384, 40, 40]> input_77_cast_fp16 = concat(axis = var_206, interleave = input_77_interleave_0, values = (var_221_cast_fp16_0, var_221_cast_fp16_1, var_300_cast_fp16))[name = tensor<string, []>("input_77_cast_fp16")];
            tensor<string, []> input_79_pad_type_0 = const()[name = tensor<string, []>("input_79_pad_type_0"), val = tensor<string, []>("valid")];
            tensor<int32, [2]> input_79_strides_0 = const()[name = tensor<string, []>("input_79_strides_0"), val = tensor<int32, [2]>([1, 1])];
            tensor<int32, [4]> input_79_pad_0 = const()[name = tensor<string, []>("input_79_pad_0"), val = tensor<int32, [4]>([0, 0, 0, 0])];
            tensor<int32, [2]> input_79_dilations_0 = const()[name = tensor<string, []>("input_79_dilations_0"), val = tensor<int32, [2]>([1, 1])];
            tensor<int32, []> input_79_groups_0 = const()[name = tensor<string, []>("input_79_groups_0"), val = tensor<int32, []>(1)];
            tensor<fp16, [256, 384, 1, 1]> model_6_cv2_conv_weight_to_fp16 = const()[name = tensor<string, []>("model_6_cv2_conv_weight_to_fp16"), val = tensor<fp16, [256, 384, 1, 1]>(BLOBFILE(path = tensor<string, []>("@model_path/weights/weight.bin"), offset = tensor<uint64, []>(2267264)))];
            tensor<fp16, [256]> model_6_cv2_conv_bias_to_fp16 = const()[name = tensor<string, []>("model_6_cv2_conv_bias_to_fp16"), val = tensor<fp16, [256]>(BLOBFILE(path = tensor<string, []>("@model_path/weights/weight.bin"), offset = tensor<uint64, []>(2463936)))];
            tensor<fp16, [1, 256, 40, 40]> input_79_cast_fp16 = conv(bias = model_6_cv2_conv_bias_to_fp16, dilations = input_79_dilations_0, groups = input_79_groups_0, pad = input_79_pad_0, pad_type = input_79_pad_type_0, strides = input_79_strides_0, weight = model_6_cv2_conv_weight_to_fp16, x = input_77_cast_fp16)[name = tensor<string, []>("input_79_cast_fp16")];
            tensor<fp16, [1, 256, 40, 40]> input_81_cast_fp16 = silu(x = input_79_cast_fp16)[name = tensor<string, []>("input_81_cast_fp16")];
            tensor<string, []> input_83_pad_type_0 = const()[name = tensor<string, []>("input_83_pad_type_0"), val = tensor<string, []>("custom")];
            tensor<int32, [4]> input_83_pad_0 = const()[name = tensor<string, []>("input_83_pad_0"), val = tensor<int32, [4]>([1, 1, 1, 1])];
            tensor<int32, [2]> input_83_strides_0 = const()[name = tensor<string, []>("input_83_strides_0"), val = tensor<int32, [2]>([2, 2])];
            tensor<int32, [2]> input_83_dilations_0 = const()[name = tensor<string, []>("input_83_dilations_0"), val = tensor<int32, [2]>([1, 1])];
            tensor<int32, []> input_83_groups_0 = const()[name = tensor<string, []>("input_83_groups_0"), val = tensor<int32, []>(1)];
            tensor<fp16, [512, 256, 3, 3]> model_7_conv_weight_to_fp16 = const()[name = tensor<string, []>("model_7_conv_weight_to_fp16"), val = tensor<fp16, [512, 256, 3, 3]>(BLOBFILE(path = tensor<string, []>("@model_path/weights/weight.bin"), offset = tensor<uint64, []>(2464512)))];
            tensor<fp16, [512]> model_7_conv_bias_to_fp16 = const()[name = tensor<string, []>("model_7_conv_bias_to_fp16"), val = tensor<fp16, [512]>(BLOBFILE(path = tensor<string, []>("@model_path/weights/weight.bin"), offset = tensor<uint64, []>(4823872)))];
            tensor<fp16, [1, 512, 20, 20]> input_83_cast_fp16 = conv(bias = model_7_conv_bias_to_fp16, dilations = input_83_dilations_0, groups = input_83_groups_0, pad = input_83_pad_0, pad_type = input_83_pad_type_0, strides = input_83_strides_0, weight = model_7_conv_weight_to_fp16, x = input_81_cast_fp16)[name = tensor<string, []>("input_83_cast_fp16")];
            tensor<fp16, [1, 512, 20, 20]> input_85_cast_fp16 = silu(x = input_83_cast_fp16)[name = tensor<string, []>("input_85_cast_fp16")];
            tensor<int32, []> var_330 = const()[name = tensor<string, []>("op_330"), val = tensor<int32, []>(1)];
            tensor<string, []> input_87_pad_type_0 = const()[name = tensor<string, []>("input_87_pad_type_0"), val = tensor<string, []>("valid")];
            tensor<int32, [2]> input_87_strides_0 = const()[name = tensor<string, []>("input_87_strides_0"), val = tensor<int32, [2]>([1, 1])];
            tensor<int32, [4]> input_87_pad_0 = const()[name = tensor<string, []>("input_87_pad_0"), val = tensor<int32, [4]>([0, 0, 0, 0])];
            tensor<int32, [2]> input_87_dilations_0 = const()[name = tensor<string, []>("input_87_dilations_0"), val = tensor<int32, [2]>([1, 1])];
            tensor<int32, []> input_87_groups_0 = const()[name = tensor<string, []>("input_87_groups_0"), val = tensor<int32, []>(1)];
            tensor<fp16, [512, 512, 1, 1]> model_8_cv1_conv_weight_to_fp16 = const()[name = tensor<string, []>("model_8_cv1_conv_weight_to_fp16"), val = tensor<fp16, [512, 512, 1, 1]>(BLOBFILE(path = tensor<string, []>("@model_path/weights/weight.bin"), offset = tensor<uint64, []>(4824960)))];
            tensor<fp16, [512]> model_8_cv1_conv_bias_to_fp16 = const()[name = tensor<string, []>("model_8_cv1_conv_bias_to_fp16"), val = tensor<fp16, [512]>(BLOBFILE(path = tensor<string, []>("@model_path/weights/weight.bin"), offset = tensor<uint64, []>(5349312)))];
            tensor<fp16, [1, 512, 20, 20]> input_87_cast_fp16 = conv(bias = model_8_cv1_conv_bias_to_fp16, dilations = input_87_dilations_0, groups = input_87_groups_0, pad = input_87_pad_0, pad_type = input_87_pad_type_0, strides = input_87_strides_0, weight = model_8_cv1_conv_weight_to_fp16, x = input_85_cast_fp16)[name = tensor<string, []>("input_87_cast_fp16")];
            tensor<fp16, [1, 512, 20, 20]> var_343_cast_fp16 = silu(x = input_87_cast_fp16)[name = tensor<string, []>("op_343_cast_fp16")];
            tensor<int32, [2]> var_344 = const()[name = tensor<string, []>("op_344"), val = tensor<int32, [2]>([256, 256])];
            tensor<int32, []> var_345_axis_0 = const()[name = tensor<string, []>("op_345_axis_0"), val = tensor<int32, []>(1)];
            tensor<fp16, [1, 256, 20, 20]> var_345_cast_fp16_0, tensor<fp16, [1, 256, 20, 20]> var_345_cast_fp16_1 = split(axis = var_345_axis_0, split_sizes = var_344, x = var_343_cast_fp16)[name = tensor<string, []>("op_345_cast_fp16")];
            tensor<string, []> input_91_pad_type_0 = const()[name = tensor<string, []>("input_91_pad_type_0"), val = tensor<string, []>("valid")];
            tensor<int32, [2]> input_91_strides_0 = const()[name = tensor<string, []>("input_91_strides_0"), val = tensor<int32, [2]>([1, 1])];
            tensor<int32, [4]> input_91_pad_0 = const()[name = tensor<string, []>("input_91_pad_0"), val = tensor<int32, [4]>([0, 0, 0, 0])];
            tensor<int32, [2]> input_91_dilations_0 = const()[name = tensor<string, []>("input_91_dilations_0"), val = tensor<int32, [2]>([1, 1])];
            tensor<int32, []> input_91_groups_0 = const()[name = tensor<string, []>("input_91_groups_0"), val = tensor<int32, []>(1)];
            tensor<fp16, [128, 256, 1, 1]> model_8_m_0_cv1_conv_weight_to_fp16 = const()[name = tensor<string, []>("model_8_m_0_cv1_conv_weight_to_fp16"), val = tensor<fp16, [128, 256, 1, 1]>(BLOBFILE(path = tensor<string, []>("@model_path/weights/weight.bin"), offset = tensor<uint64, []>(5350400)))];
            tensor<fp16, [128]> model_8_m_0_cv1_conv_bias_to_fp16 = const()[name = tensor<string, []>("model_8_m_0_cv1_conv_bias_to_fp16"), val = tensor<fp16, [128]>(BLOBFILE(path = tensor<string, []>("@model_path/weights/weight.bin"), offset = tensor<uint64, []>(5416000)))];
            tensor<fp16, [1, 128, 20, 20]> input_91_cast_fp16 = conv(bias = model_8_m_0_cv1_conv_bias_to_fp16, dilations = input_91_dilations_0, groups = input_91_groups_0, pad = input_91_pad_0, pad_type = input_91_pad_type_0, strides = input_91_strides_0, weight = model_8_m_0_cv1_conv_weight_to_fp16, x = var_345_cast_fp16_1)[name = tensor<string, []>("input_91_cast_fp16")];
            tensor<fp16, [1, 128, 20, 20]> input_93_cast_fp16 = silu(x = input_91_cast_fp16)[name = tensor<string, []>("input_93_cast_fp16")];
            tensor<string, []> input_95_pad_type_0 = const()[name = tensor<string, []>("input_95_pad_type_0"), val = tensor<string, []>("custom")];
            tensor<int32, [4]> input_95_pad_0 = const()[name = tensor<string, []>("input_95_pad_0"), val = tensor<int32, [4]>([1, 1, 1, 1])];
            tensor<int32, [2]> input_95_strides_0 = const()[name = tensor<string, []>("input_95_strides_0"), val = tensor<int32, [2]>([1, 1])];
            tensor<int32, [2]> input_95_dilations_0 = const()[name = tensor<string, []>("input_95_dilations_0"), val = tensor<int32, [2]>([1, 1])];
            tensor<int32, []> input_95_groups_0 = const()[name = tensor<string, []>("input_95_groups_0"), val = tensor<int32, []>(1)];
            tensor<fp16, [128, 128, 3, 3]> model_8_m_0_m_0_cv1_conv_weight_to_fp16 = const()[name = tensor<string, []>("model_8_m_0_m_0_cv1_conv_weight_to_fp16"), val = tensor<fp16, [128, 128, 3, 3]>(BLOBFILE(path = tensor<string, []>("@model_path/weights/weight.bin"), offset = tensor<uint64, []>(5416320)))];
            tensor<fp16, [128]> model_8_m_0_m_0_cv1_conv_bias_to_fp16 = const()[name = tensor<string, []>("model_8_m_0_m_0_cv1_conv_bias_to_fp16"), val = tensor<fp16, [128]>(BLOBFILE(path = tensor<string, []>("@model_path/weights/weight.bin"), offset = tensor<uint64, []>(5711296)))];
            tensor<fp16, [1, 128, 20, 20]> input_95_cast_fp16 = conv(bias = model_8_m_0_m_0_cv1_conv_bias_to_fp16, dilations = input_95_dilations_0, groups = input_95_groups_0, pad = input_95_pad_0, pad_type = input_95_pad_type_0, strides = input_95_strides_0, weight = model_8_m_0_m_0_cv1_conv_weight_to_fp16, x = input_93_cast_fp16)[name = tensor<string, []>("input_95_cast_fp16")];
            tensor<fp16, [1, 128, 20, 20]> input_97_cast_fp16 = silu(x = input_95_cast_fp16)[name = tensor<string, []>("input_97_cast_fp16")];
            tensor<string, []> input_99_pad_type_0 = const()[name = tensor<string, []>("input_99_pad_type_0"), val = tensor<string, []>("custom")];
            tensor<int32, [4]> input_99_pad_0 = const()[name = tensor<string, []>("input_99_pad_0"), val = tensor<int32, [4]>([1, 1, 1, 1])];
            tensor<int32, [2]> input_99_strides_0 = const()[name = tensor<string, []>("input_99_strides_0"), val = tensor<int32, [2]>([1, 1])];
            tensor<int32, [2]> input_99_dilations_0 = const()[name = tensor<string, []>("input_99_dilations_0"), val = tensor<int32, [2]>([1, 1])];
            tensor<int32, []> input_99_groups_0 = const()[name = tensor<string, []>("input_99_groups_0"), val = tensor<int32, []>(1)];
            tensor<fp16, [128, 128, 3, 3]> model_8_m_0_m_0_cv2_conv_weight_to_fp16 = const()[name = tensor<string, []>("model_8_m_0_m_0_cv2_conv_weight_to_fp16"), val = tensor<fp16, [128, 128, 3, 3]>(BLOBFILE(path = tensor<string, []>("@model_path/weights/weight.bin"), offset = tensor<uint64, []>(5711616)))];
            tensor<fp16, [128]> model_8_m_0_m_0_cv2_conv_bias_to_fp16 = const()[name = tensor<string, []>("model_8_m_0_m_0_cv2_conv_bias_to_fp16"), val = tensor<fp16, [128]>(BLOBFILE(path = tensor<string, []>("@model_path/weights/weight.bin"), offset = tensor<uint64, []>(6006592)))];
            tensor<fp16, [1, 128, 20, 20]> input_99_cast_fp16 = conv(bias = model_8_m_0_m_0_cv2_conv_bias_to_fp16, dilations = input_99_dilations_0, groups = input_99_groups_0, pad = input_99_pad_0, pad_type = input_99_pad_type_0, strides = input_99_strides_0, weight = model_8_m_0_m_0_cv2_conv_weight_to_fp16, x = input_97_cast_fp16)[name = tensor<string, []>("input_99_cast_fp16")];
            tensor<fp16, [1, 128, 20, 20]> var_382_cast_fp16 = silu(x = input_99_cast_fp16)[name = tensor<string, []>("op_382_cast_fp16")];
            tensor<fp16, [1, 128, 20, 20]> input_101_cast_fp16 = add(x = input_93_cast_fp16, y = var_382_cast_fp16)[name = tensor<string, []>("input_101_cast_fp16")];
            tensor<string, []> input_103_pad_type_0 = const()[name = tensor<string, []>("input_103_pad_type_0"), val = tensor<string, []>("custom")];
            tensor<int32, [4]> input_103_pad_0 = const()[name = tensor<string, []>("input_103_pad_0"), val = tensor<int32, [4]>([1, 1, 1, 1])];
            tensor<int32, [2]> input_103_strides_0 = const()[name = tensor<string, []>("input_103_strides_0"), val = tensor<int32, [2]>([1, 1])];
            tensor<int32, [2]> input_103_dilations_0 = const()[name = tensor<string, []>("input_103_dilations_0"), val = tensor<int32, [2]>([1, 1])];
            tensor<int32, []> input_103_groups_0 = const()[name = tensor<string, []>("input_103_groups_0"), val = tensor<int32, []>(1)];
            tensor<fp16, [128, 128, 3, 3]> model_8_m_0_m_1_cv1_conv_weight_to_fp16 = const()[name = tensor<string, []>("model_8_m_0_m_1_cv1_conv_weight_to_fp16"), val = tensor<fp16, [128, 128, 3, 3]>(BLOBFILE(path = tensor<string, []>("@model_path/weights/weight.bin"), offset = tensor<uint64, []>(6006912)))];
            tensor<fp16, [128]> model_8_m_0_m_1_cv1_conv_bias_to_fp16 = const()[name = tensor<string, []>("model_8_m_0_m_1_cv1_conv_bias_to_fp16"), val = tensor<fp16, [128]>(BLOBFILE(path = tensor<string, []>("@model_path/weights/weight.bin"), offset = tensor<uint64, []>(6301888)))];
            tensor<fp16, [1, 128, 20, 20]> input_103_cast_fp16 = conv(bias = model_8_m_0_m_1_cv1_conv_bias_to_fp16, dilations = input_103_dilations_0, groups = input_103_groups_0, pad = input_103_pad_0, pad_type = input_103_pad_type_0, strides = input_103_strides_0, weight = model_8_m_0_m_1_cv1_conv_weight_to_fp16, x = input_101_cast_fp16)[name = tensor<string, []>("input_103_cast_fp16")];
            tensor<fp16, [1, 128, 20, 20]> input_105_cast_fp16 = silu(x = input_103_cast_fp16)[name = tensor<string, []>("input_105_cast_fp16")];
            tensor<string, []> input_107_pad_type_0 = const()[name = tensor<string, []>("input_107_pad_type_0"), val = tensor<string, []>("custom")];
            tensor<int32, [4]> input_107_pad_0 = const()[name = tensor<string, []>("input_107_pad_0"), val = tensor<int32, [4]>([1, 1, 1, 1])];
            tensor<int32, [2]> input_107_strides_0 = const()[name = tensor<string, []>("input_107_strides_0"), val = tensor<int32, [2]>([1, 1])];
            tensor<int32, [2]> input_107_dilations_0 = const()[name = tensor<string, []>("input_107_dilations_0"), val = tensor<int32, [2]>([1, 1])];
            tensor<int32, []> input_107_groups_0 = const()[name = tensor<string, []>("input_107_groups_0"), val = tensor<int32, []>(1)];
            tensor<fp16, [128, 128, 3, 3]> model_8_m_0_m_1_cv2_conv_weight_to_fp16 = const()[name = tensor<string, []>("model_8_m_0_m_1_cv2_conv_weight_to_fp16"), val = tensor<fp16, [128, 128, 3, 3]>(BLOBFILE(path = tensor<string, []>("@model_path/weights/weight.bin"), offset = tensor<uint64, []>(6302208)))];
            tensor<fp16, [128]> model_8_m_0_m_1_cv2_conv_bias_to_fp16 = const()[name = tensor<string, []>("model_8_m_0_m_1_cv2_conv_bias_to_fp16"), val = tensor<fp16, [128]>(BLOBFILE(path = tensor<string, []>("@model_path/weights/weight.bin"), offset = tensor<uint64, []>(6597184)))];
            tensor<fp16, [1, 128, 20, 20]> input_107_cast_fp16 = conv(bias = model_8_m_0_m_1_cv2_conv_bias_to_fp16, dilations = input_107_dilations_0, groups = input_107_groups_0, pad = input_107_pad_0, pad_type = input_107_pad_type_0, strides = input_107_strides_0, weight = model_8_m_0_m_1_cv2_conv_weight_to_fp16, x = input_105_cast_fp16)[name = tensor<string, []>("input_107_cast_fp16")];
            tensor<fp16, [1, 128, 20, 20]> var_403_cast_fp16 = silu(x = input_107_cast_fp16)[name = tensor<string, []>("op_403_cast_fp16")];
            tensor<fp16, [1, 128, 20, 20]> var_404_cast_fp16 = add(x = input_101_cast_fp16, y = var_403_cast_fp16)[name = tensor<string, []>("op_404_cast_fp16")];
            tensor<string, []> input_109_pad_type_0 = const()[name = tensor<string, []>("input_109_pad_type_0"), val = tensor<string, []>("valid")];
            tensor<int32, [2]> input_109_strides_0 = const()[name = tensor<string, []>("input_109_strides_0"), val = tensor<int32, [2]>([1, 1])];
            tensor<int32, [4]> input_109_pad_0 = const()[name = tensor<string, []>("input_109_pad_0"), val = tensor<int32, [4]>([0, 0, 0, 0])];
            tensor<int32, [2]> input_109_dilations_0 = const()[name = tensor<string, []>("input_109_dilations_0"), val = tensor<int32, [2]>([1, 1])];
            tensor<int32, []> input_109_groups_0 = const()[name = tensor<string, []>("input_109_groups_0"), val = tensor<int32, []>(1)];
            tensor<fp16, [128, 256, 1, 1]> model_8_m_0_cv2_conv_weight_to_fp16 = const()[name = tensor<string, []>("model_8_m_0_cv2_conv_weight_to_fp16"), val = tensor<fp16, [128, 256, 1, 1]>(BLOBFILE(path = tensor<string, []>("@model_path/weights/weight.bin"), offset = tensor<uint64, []>(6597504)))];
            tensor<fp16, [128]> model_8_m_0_cv2_conv_bias_to_fp16 = const()[name = tensor<string, []>("model_8_m_0_cv2_conv_bias_to_fp16"), val = tensor<fp16, [128]>(BLOBFILE(path = tensor<string, []>("@model_path/weights/weight.bin"), offset = tensor<uint64, []>(6663104)))];
            tensor<fp16, [1, 128, 20, 20]> input_109_cast_fp16 = conv(bias = model_8_m_0_cv2_conv_bias_to_fp16, dilations = input_109_dilations_0, groups = input_109_groups_0, pad = input_109_pad_0, pad_type = input_109_pad_type_0, strides = input_109_strides_0, weight = model_8_m_0_cv2_conv_weight_to_fp16, x = var_345_cast_fp16_1)[name = tensor<string, []>("input_109_cast_fp16")];
            tensor<fp16, [1, 128, 20, 20]> var_413_cast_fp16 = silu(x = input_109_cast_fp16)[name = tensor<string, []>("op_413_cast_fp16")];
            tensor<bool, []> input_111_interleave_0 = const()[name = tensor<string, []>("input_111_interleave_0"), val = tensor<bool, []>(false)];
            tensor<fp16, [1, 256, 20, 20]> input_111_cast_fp16 = concat(axis = var_330, interleave = input_111_interleave_0, values = (var_404_cast_fp16, var_413_cast_fp16))[name = tensor<string, []>("input_111_cast_fp16")];
            tensor<string, []> input_113_pad_type_0 = const()[name = tensor<string, []>("input_113_pad_type_0"), val = tensor<string, []>("valid")];
            tensor<int32, [2]> input_113_strides_0 = const()[name = tensor<string, []>("input_113_strides_0"), val = tensor<int32, [2]>([1, 1])];
            tensor<int32, [4]> input_113_pad_0 = const()[name = tensor<string, []>("input_113_pad_0"), val = tensor<int32, [4]>([0, 0, 0, 0])];
            tensor<int32, [2]> input_113_dilations_0 = const()[name = tensor<string, []>("input_113_dilations_0"), val = tensor<int32, [2]>([1, 1])];
            tensor<int32, []> input_113_groups_0 = const()[name = tensor<string, []>("input_113_groups_0"), val = tensor<int32, []>(1)];
            tensor<fp16, [256, 256, 1, 1]> model_8_m_0_cv3_conv_weight_to_fp16 = const()[name = tensor<string, []>("model_8_m_0_cv3_conv_weight_to_fp16"), val = tensor<fp16, [256, 256, 1, 1]>(BLOBFILE(path = tensor<string, []>("@model_path/weights/weight.bin"), offset = tensor<uint64, []>(6663424)))];
            tensor<fp16, [256]> model_8_m_0_cv3_conv_bias_to_fp16 = const()[name = tensor<string, []>("model_8_m_0_cv3_conv_bias_to_fp16"), val = tensor<fp16, [256]>(BLOBFILE(path = tensor<string, []>("@model_path/weights/weight.bin"), offset = tensor<uint64, []>(6794560)))];
            tensor<fp16, [1, 256, 20, 20]> input_113_cast_fp16 = conv(bias = model_8_m_0_cv3_conv_bias_to_fp16, dilations = input_113_dilations_0, groups = input_113_groups_0, pad = input_113_pad_0, pad_type = input_113_pad_type_0, strides = input_113_strides_0, weight = model_8_m_0_cv3_conv_weight_to_fp16, x = input_111_cast_fp16)[name = tensor<string, []>("input_113_cast_fp16")];
            tensor<fp16, [1, 256, 20, 20]> var_424_cast_fp16 = silu(x = input_113_cast_fp16)[name = tensor<string, []>("op_424_cast_fp16")];
            tensor<bool, []> input_115_interleave_0 = const()[name = tensor<string, []>("input_115_interleave_0"), val = tensor<bool, []>(false)];
            tensor<fp16, [1, 768, 20, 20]> input_115_cast_fp16 = concat(axis = var_330, interleave = input_115_interleave_0, values = (var_345_cast_fp16_0, var_345_cast_fp16_1, var_424_cast_fp16))[name = tensor<string, []>("input_115_cast_fp16")];
            tensor<string, []> input_117_pad_type_0 = const()[name = tensor<string, []>("input_117_pad_type_0"), val = tensor<string, []>("valid")];
            tensor<int32, [2]> input_117_strides_0 = const()[name = tensor<string, []>("input_117_strides_0"), val = tensor<int32, [2]>([1, 1])];
            tensor<int32, [4]> input_117_pad_0 = const()[name = tensor<string, []>("input_117_pad_0"), val = tensor<int32, [4]>([0, 0, 0, 0])];
            tensor<int32, [2]> input_117_dilations_0 = const()[name = tensor<string, []>("input_117_dilations_0"), val = tensor<int32, [2]>([1, 1])];
            tensor<int32, []> input_117_groups_0 = const()[name = tensor<string, []>("input_117_groups_0"), val = tensor<int32, []>(1)];
            tensor<fp16, [512, 768, 1, 1]> model_8_cv2_conv_weight_to_fp16 = const()[name = tensor<string, []>("model_8_cv2_conv_weight_to_fp16"), val = tensor<fp16, [512, 768, 1, 1]>(BLOBFILE(path = tensor<string, []>("@model_path/weights/weight.bin"), offset = tensor<uint64, []>(6795136)))];
            tensor<fp16, [512]> model_8_cv2_conv_bias_to_fp16 = const()[name = tensor<string, []>("model_8_cv2_conv_bias_to_fp16"), val = tensor<fp16, [512]>(BLOBFILE(path = tensor<string, []>("@model_path/weights/weight.bin"), offset = tensor<uint64, []>(7581632)))];
            tensor<fp16, [1, 512, 20, 20]> input_117_cast_fp16 = conv(bias = model_8_cv2_conv_bias_to_fp16, dilations = input_117_dilations_0, groups = input_117_groups_0, pad = input_117_pad_0, pad_type = input_117_pad_type_0, strides = input_117_strides_0, weight = model_8_cv2_conv_weight_to_fp16, x = input_115_cast_fp16)[name = tensor<string, []>("input_117_cast_fp16")];
            tensor<fp16, [1, 512, 20, 20]> input_119_cast_fp16 = silu(x = input_117_cast_fp16)[name = tensor<string, []>("input_119_cast_fp16")];
            tensor<int32, []> var_441 = const()[name = tensor<string, []>("op_441"), val = tensor<int32, []>(1)];
            tensor<string, []> input_121_pad_type_0 = const()[name = tensor<string, []>("input_121_pad_type_0"), val = tensor<string, []>("valid")];
            tensor<int32, [2]> input_121_strides_0 = const()[name = tensor<string, []>("input_121_strides_0"), val = tensor<int32, [2]>([1, 1])];
            tensor<int32, [4]> input_121_pad_0 = const()[name = tensor<string, []>("input_121_pad_0"), val = tensor<int32, [4]>([0, 0, 0, 0])];
            tensor<int32, [2]> input_121_dilations_0 = const()[name = tensor<string, []>("input_121_dilations_0"), val = tensor<int32, [2]>([1, 1])];
            tensor<int32, []> input_121_groups_0 = const()[name = tensor<string, []>("input_121_groups_0"), val = tensor<int32, []>(1)];
            tensor<fp16, [256, 512, 1, 1]> model_9_cv1_conv_weight_to_fp16 = const()[name = tensor<string, []>("model_9_cv1_conv_weight_to_fp16"), val = tensor<fp16, [256, 512, 1, 1]>(BLOBFILE(path = tensor<string, []>("@model_path/weights/weight.bin"), offset = tensor<uint64, []>(7582720)))];
            tensor<fp16, [256]> model_9_cv1_conv_bias_to_fp16 = const()[name = tensor<string, []>("model_9_cv1_conv_bias_to_fp16"), val = tensor<fp16, [256]>(BLOBFILE(path = tensor<string, []>("@model_path/weights/weight.bin"), offset = tensor<uint64, []>(7844928)))];
            tensor<fp16, [1, 256, 20, 20]> input_121_cast_fp16 = conv(bias = model_9_cv1_conv_bias_to_fp16, dilations = input_121_dilations_0, groups = input_121_groups_0, pad = input_121_pad_0, pad_type = input_121_pad_type_0, strides = input_121_strides_0, weight = model_9_cv1_conv_weight_to_fp16, x = input_119_cast_fp16)[name = tensor<string, []>("input_121_cast_fp16")];
            tensor<int32, [2]> var_452 = const()[name = tensor<string, []>("op_452"), val = tensor<int32, [2]>([5, 5])];
            tensor<int32, [2]> var_453 = const()[name = tensor<string, []>("op_453"), val = tensor<int32, [2]>([1, 1])];
            tensor<string, []> input_123_pad_type_0 = const()[name = tensor<string, []>("input_123_pad_type_0"), val = tensor<string, []>("custom")];
            tensor<int32, [4]> input_123_pad_0 = const()[name = tensor<string, []>("input_123_pad_0"), val = tensor<int32, [4]>([2, 2, 2, 2])];
            tensor<bool, []> input_123_ceil_mode_0 = const()[name = tensor<string, []>("input_123_ceil_mode_0"), val = tensor<bool, []>(false)];
            tensor<fp16, [1, 256, 20, 20]> input_123_cast_fp16 = max_pool(ceil_mode = input_123_ceil_mode_0, kernel_sizes = var_452, pad = input_123_pad_0, pad_type = input_123_pad_type_0, strides = var_453, x = input_121_cast_fp16)[name = tensor<string, []>("input_123_cast_fp16")];
            tensor<int32, [2]> var_457 = const()[name = tensor<string, []>("op_457"), val = tensor<int32, [2]>([5, 5])];
            tensor<int32, [2]> var_458 = const()[name = tensor<string, []>("op_458"), val = tensor<int32, [2]>([1, 1])];
            tensor<string, []> input_125_pad_type_0 = const()[name = tensor<string, []>("input_125_pad_type_0"), val = tensor<string, []>("custom")];
            tensor<int32, [4]> input_125_pad_0 = const()[name = tensor<string, []>("input_125_pad_0"), val = tensor<int32, [4]>([2, 2, 2, 2])];
            tensor<bool, []> input_125_ceil_mode_0 = const()[name = tensor<string, []>("input_125_ceil_mode_0"), val = tensor<bool, []>(false)];
            tensor<fp16, [1, 256, 20, 20]> input_125_cast_fp16 = max_pool(ceil_mode = input_125_ceil_mode_0, kernel_sizes = var_457, pad = input_125_pad_0, pad_type = input_125_pad_type_0, strides = var_458, x = input_123_cast_fp16)[name = tensor<string, []>("input_125_cast_fp16")];
            tensor<int32, [2]> var_462 = const()[name = tensor<string, []>("op_462"), val = tensor<int32, [2]>([5, 5])];
            tensor<int32, [2]> var_463 = const()[name = tensor<string, []>("op_463"), val = tensor<int32, [2]>([1, 1])];
            tensor<string, []> var_466_pad_type_0 = const()[name = tensor<string, []>("op_466_pad_type_0"), val = tensor<string, []>("custom")];
            tensor<int32, [4]> var_466_pad_0 = const()[name = tensor<string, []>("op_466_pad_0"), val = tensor<int32, [4]>([2, 2, 2, 2])];
            tensor<bool, []> var_466_ceil_mode_0 = const()[name = tensor<string, []>("op_466_ceil_mode_0"), val = tensor<bool, []>(false)];
            tensor<fp16, [1, 256, 20, 20]> var_466_cast_fp16 = max_pool(ceil_mode = var_466_ceil_mode_0, kernel_sizes = var_462, pad = var_466_pad_0, pad_type = var_466_pad_type_0, strides = var_463, x = input_125_cast_fp16)[name = tensor<string, []>("op_466_cast_fp16")];
            tensor<bool, []> input_127_interleave_0 = const()[name = tensor<string, []>("input_127_interleave_0"), val = tensor<bool, []>(false)];
            tensor<fp16, [1, 1024, 20, 20]> input_127_cast_fp16 = concat(axis = var_441, interleave = input_127_interleave_0, values = (input_121_cast_fp16, input_123_cast_fp16, input_125_cast_fp16, var_466_cast_fp16))[name = tensor<string, []>("input_127_cast_fp16")];
            tensor<string, []> input_129_pad_type_0 = const()[name = tensor<string, []>("input_129_pad_type_0"), val = tensor<string, []>("valid")];
            tensor<int32, [2]> input_129_strides_0 = const()[name = tensor<string, []>("input_129_strides_0"), val = tensor<int32, [2]>([1, 1])];
            tensor<int32, [4]> input_129_pad_0 = const()[name = tensor<string, []>("input_129_pad_0"), val = tensor<int32, [4]>([0, 0, 0, 0])];
            tensor<int32, [2]> input_129_dilations_0 = const()[name = tensor<string, []>("input_129_dilations_0"), val = tensor<int32, [2]>([1, 1])];
            tensor<int32, []> input_129_groups_0 = const()[name = tensor<string, []>("input_129_groups_0"), val = tensor<int32, []>(1)];
            tensor<fp16, [512, 1024, 1, 1]> model_9_cv2_conv_weight_to_fp16 = const()[name = tensor<string, []>("model_9_cv2_conv_weight_to_fp16"), val = tensor<fp16, [512, 1024, 1, 1]>(BLOBFILE(path = tensor<string, []>("@model_path/weights/weight.bin"), offset = tensor<uint64, []>(7845504)))];
            tensor<fp16, [512]> model_9_cv2_conv_bias_to_fp16 = const()[name = tensor<string, []>("model_9_cv2_conv_bias_to_fp16"), val = tensor<fp16, [512]>(BLOBFILE(path = tensor<string, []>("@model_path/weights/weight.bin"), offset = tensor<uint64, []>(8894144)))];
            tensor<fp16, [1, 512, 20, 20]> input_129_cast_fp16 = conv(bias = model_9_cv2_conv_bias_to_fp16, dilations = input_129_dilations_0, groups = input_129_groups_0, pad = input_129_pad_0, pad_type = input_129_pad_type_0, strides = input_129_strides_0, weight = model_9_cv2_conv_weight_to_fp16, x = input_127_cast_fp16)[name = tensor<string, []>("input_129_cast_fp16")];
            tensor<fp16, [1, 512, 20, 20]> y_1_cast_fp16 = silu(x = input_129_cast_fp16)[name = tensor<string, []>("y_1_cast_fp16")];
            tensor<fp16, [1, 512, 20, 20]> input_131_cast_fp16 = add(x = y_1_cast_fp16, y = input_119_cast_fp16)[name = tensor<string, []>("input_131_cast_fp16")];
            tensor<int32, []> var_486 = const()[name = tensor<string, []>("op_486"), val = tensor<int32, []>(-1)];
            tensor<int32, []> var_492 = const()[name = tensor<string, []>("op_492"), val = tensor<int32, []>(1)];
            tensor<string, []> input_133_pad_type_0 = const()[name = tensor<string, []>("input_133_pad_type_0"), val = tensor<string, []>("valid")];
            tensor<int32, [2]> input_133_strides_0 = const()[name = tensor<string, []>("input_133_strides_0"), val = tensor<int32, [2]>([1, 1])];
            tensor<int32, [4]> input_133_pad_0 = const()[name = tensor<string, []>("input_133_pad_0"), val = tensor<int32, [4]>([0, 0, 0, 0])];
            tensor<int32, [2]> input_133_dilations_0 = const()[name = tensor<string, []>("input_133_dilations_0"), val = tensor<int32, [2]>([1, 1])];
            tensor<int32, []> input_133_groups_0 = const()[name = tensor<string, []>("input_133_groups_0"), val = tensor<int32, []>(1)];
            tensor<fp16, [512, 512, 1, 1]> model_10_cv1_conv_weight_to_fp16 = const()[name = tensor<string, []>("model_10_cv1_conv_weight_to_fp16"), val = tensor<fp16, [512, 512, 1, 1]>(BLOBFILE(path = tensor<string, []>("@model_path/weights/weight.bin"), offset = tensor<uint64, []>(8895232)))];
            tensor<fp16, [512]> model_10_cv1_conv_bias_to_fp16 = const()[name = tensor<string, []>("model_10_cv1_conv_bias_to_fp16"), val = tensor<fp16, [512]>(BLOBFILE(path = tensor<string, []>("@model_path/weights/weight.bin"), offset = tensor<uint64, []>(9419584)))];
            tensor<fp16, [1, 512, 20, 20]> input_133_cast_fp16 = conv(bias = model_10_cv1_conv_bias_to_fp16, dilations = input_133_dilations_0, groups = input_133_groups_0, pad = input_133_pad_0, pad_type = input_133_pad_type_0, strides = input_133_strides_0, weight = model_10_cv1_conv_weight_to_fp16, x = input_131_cast_fp16)[name = tensor<string, []>("input_133_cast_fp16")];
            tensor<fp16, [1, 512, 20, 20]> var_504_cast_fp16 = silu(x = input_133_cast_fp16)[name = tensor<string, []>("op_504_cast_fp16")];
            tensor<int32, [2]> var_505 = const()[name = tensor<string, []>("op_505"), val = tensor<int32, [2]>([256, 256])];
            tensor<int32, []> var_506_axis_0 = const()[name = tensor<string, []>("op_506_axis_0"), val = tensor<int32, []>(1)];
            tensor<fp16, [1, 256, 20, 20]> var_506_cast_fp16_0, tensor<fp16, [1, 256, 20, 20]> var_506_cast_fp16_1 = split(axis = var_506_axis_0, split_sizes = var_505, x = var_504_cast_fp16)[name = tensor<string, []>("op_506_cast_fp16")];
            tensor<string, []> qkv_1_pad_type_0 = const()[name = tensor<string, []>("qkv_1_pad_type_0"), val = tensor<string, []>("valid")];
            tensor<int32, [2]> qkv_1_strides_0 = const()[name = tensor<string, []>("qkv_1_strides_0"), val = tensor<int32, [2]>([1, 1])];
            tensor<int32, [4]> qkv_1_pad_0 = const()[name = tensor<string, []>("qkv_1_pad_0"), val = tensor<int32, [4]>([0, 0, 0, 0])];
            tensor<int32, [2]> qkv_1_dilations_0 = const()[name = tensor<string, []>("qkv_1_dilations_0"), val = tensor<int32, [2]>([1, 1])];
            tensor<int32, []> qkv_1_groups_0 = const()[name = tensor<string, []>("qkv_1_groups_0"), val = tensor<int32, []>(1)];
            tensor<fp16, [512, 256, 1, 1]> model_10_m_0_attn_qkv_conv_weight_to_fp16 = const()[name = tensor<string, []>("model_10_m_0_attn_qkv_conv_weight_to_fp16"), val = tensor<fp16, [512, 256, 1, 1]>(BLOBFILE(path = tensor<string, []>("@model_path/weights/weight.bin"), offset = tensor<uint64, []>(9420672)))];
            tensor<fp16, [512]> model_10_m_0_attn_qkv_conv_bias_to_fp16 = const()[name = tensor<string, []>("model_10_m_0_attn_qkv_conv_bias_to_fp16"), val = tensor<fp16, [512]>(BLOBFILE(path = tensor<string, []>("@model_path/weights/weight.bin"), offset = tensor<uint64, []>(9682880)))];
            tensor<fp16, [1, 512, 20, 20]> qkv_1_cast_fp16 = conv(bias = model_10_m_0_attn_qkv_conv_bias_to_fp16, dilations = qkv_1_dilations_0, groups = qkv_1_groups_0, pad = qkv_1_pad_0, pad_type = qkv_1_pad_type_0, strides = qkv_1_strides_0, weight = model_10_m_0_attn_qkv_conv_weight_to_fp16, x = var_506_cast_fp16_1)[name = tensor<string, []>("qkv_1_cast_fp16")];
            tensor<int32, [4]> var_531 = const()[name = tensor<string, []>("op_531"), val = tensor<int32, [4]>([1, 4, 128, 400])];
            tensor<fp16, [1, 4, 128, 400]> var_532_cast_fp16 = reshape(shape = var_531, x = qkv_1_cast_fp16)[name = tensor<string, []>("op_532_cast_fp16")];
            tensor<int32, [3]> var_533 = const()[name = tensor<string, []>("op_533"), val = tensor<int32, [3]>([32, 32, 64])];
            tensor<int32, []> var_534_axis_0 = const()[name = tensor<string, []>("op_534_axis_0"), val = tensor<int32, []>(2)];
            tensor<fp16, [1, 4, 32, 400]> var_534_cast_fp16_0, tensor<fp16, [1, 4, 32, 400]> var_534_cast_fp16_1, tensor<fp16, [1, 4, 64, 400]> var_534_cast_fp16_2 = split(axis = var_534_axis_0, split_sizes = var_533, x = var_532_cast_fp16)[name = tensor<string, []>("op_534_cast_fp16")];
            tensor<bool, []> var_539_transpose_x_1 = const()[name = tensor<string, []>("op_539_transpose_x_1"), val = tensor<bool, []>(true)];
            tensor<bool, []> var_539_transpose_y_1 = const()[name = tensor<string, []>("op_539_transpose_y_1"), val = tensor<bool, []>(false)];
            tensor<fp16, [1, 4, 400, 400]> var_539_cast_fp16 = matmul(transpose_x = var_539_transpose_x_1, transpose_y = var_539_transpose_y_1, x = var_534_cast_fp16_0, y = var_534_cast_fp16_1)[name = tensor<string, []>("op_539_cast_fp16")];
            tensor<fp16, []> var_540_to_fp16 = const()[name = tensor<string, []>("op_540_to_fp16"), val = tensor<fp16, []>(0x1.6ap-3)];
            tensor<fp16, [1, 4, 400, 400]> attn_1_cast_fp16 = mul(x = var_539_cast_fp16, y = var_540_to_fp16)[name = tensor<string, []>("attn_1_cast_fp16")];
            tensor<fp16, [1, 4, 400, 400]> attn_3_cast_fp16 = softmax(axis = var_486, x = attn_1_cast_fp16)[name = tensor<string, []>("attn_3_cast_fp16")];
            tensor<bool, []> var_544_transpose_x_1 = const()[name = tensor<string, []>("op_544_transpose_x_1"), val = tensor<bool, []>(false)];
            tensor<bool, []> var_544_transpose_y_1 = const()[name = tensor<string, []>("op_544_transpose_y_1"), val = tensor<bool, []>(true)];
            tensor<fp16, [1, 4, 64, 400]> var_544_cast_fp16 = matmul(transpose_x = var_544_transpose_x_1, transpose_y = var_544_transpose_y_1, x = var_534_cast_fp16_2, y = attn_3_cast_fp16)[name = tensor<string, []>("op_544_cast_fp16")];
            tensor<int32, [4]> var_545 = const()[name = tensor<string, []>("op_545"), val = tensor<int32, [4]>([1, 256, 20, 20])];
            tensor<fp16, [1, 256, 20, 20]> var_546_cast_fp16 = reshape(shape = var_545, x = var_544_cast_fp16)[name = tensor<string, []>("op_546_cast_fp16")];
            tensor<int32, [4]> var_547 = const()[name = tensor<string, []>("op_547"), val = tensor<int32, [4]>([1, 256, 20, 20])];
            tensor<fp16, [1, 256, 20, 20]> input_135_cast_fp16 = reshape(shape = var_547, x = var_534_cast_fp16_2)[name = tensor<string, []>("input_135_cast_fp16")];
            tensor<string, []> var_556_pad_type_0 = const()[name = tensor<string, []>("op_556_pad_type_0"), val = tensor<string, []>("custom")];
            tensor<int32, [4]> var_556_pad_0 = const()[name = tensor<string, []>("op_556_pad_0"), val = tensor<int32, [4]>([1, 1, 1, 1])];
            tensor<int32, []> var_556_groups_0 = const()[name = tensor<string, []>("op_556_groups_0"), val = tensor<int32, []>(256)];
            tensor<int32, [2]> var_556_strides_0 = const()[name = tensor<string, []>("op_556_strides_0"), val = tensor<int32, [2]>([1, 1])];
            tensor<int32, [2]> var_556_dilations_0 = const()[name = tensor<string, []>("op_556_dilations_0"), val = tensor<int32, [2]>([1, 1])];
            tensor<fp16, [256, 1, 3, 3]> model_10_m_0_attn_pe_conv_weight_to_fp16 = const()[name = tensor<string, []>("model_10_m_0_attn_pe_conv_weight_to_fp16"), val = tensor<fp16, [256, 1, 3, 3]>(BLOBFILE(path = tensor<string, []>("@model_path/weights/weight.bin"), offset = tensor<uint64, []>(9683968)))];
            tensor<fp16, [256]> model_10_m_0_attn_pe_conv_bias_to_fp16 = const()[name = tensor<string, []>("model_10_m_0_attn_pe_conv_bias_to_fp16"), val = tensor<fp16, [256]>(BLOBFILE(path = tensor<string, []>("@model_path/weights/weight.bin"), offset = tensor<uint64, []>(9688640)))];
            tensor<fp16, [1, 256, 20, 20]> var_556_cast_fp16 = conv(bias = model_10_m_0_attn_pe_conv_bias_to_fp16, dilations = var_556_dilations_0, groups = var_556_groups_0, pad = var_556_pad_0, pad_type = var_556_pad_type_0, strides = var_556_strides_0, weight = model_10_m_0_attn_pe_conv_weight_to_fp16, x = input_135_cast_fp16)[name = tensor<string, []>("op_556_cast_fp16")];
            tensor<fp16, [1, 256, 20, 20]> input_137_cast_fp16 = add(x = var_546_cast_fp16, y = var_556_cast_fp16)[name = tensor<string, []>("input_137_cast_fp16")];
            tensor<string, []> var_565_pad_type_0 = const()[name = tensor<string, []>("op_565_pad_type_0"), val = tensor<string, []>("valid")];
            tensor<int32, [2]> var_565_strides_0 = const()[name = tensor<string, []>("op_565_strides_0"), val = tensor<int32, [2]>([1, 1])];
            tensor<int32, [4]> var_565_pad_0 = const()[name = tensor<string, []>("op_565_pad_0"), val = tensor<int32, [4]>([0, 0, 0, 0])];
            tensor<int32, [2]> var_565_dilations_0 = const()[name = tensor<string, []>("op_565_dilations_0"), val = tensor<int32, [2]>([1, 1])];
            tensor<int32, []> var_565_groups_0 = const()[name = tensor<string, []>("op_565_groups_0"), val = tensor<int32, []>(1)];
            tensor<fp16, [256, 256, 1, 1]> model_10_m_0_attn_proj_conv_weight_to_fp16 = const()[name = tensor<string, []>("model_10_m_0_attn_proj_conv_weight_to_fp16"), val = tensor<fp16, [256, 256, 1, 1]>(BLOBFILE(path = tensor<string, []>("@model_path/weights/weight.bin"), offset = tensor<uint64, []>(9689216)))];
            tensor<fp16, [256]> model_10_m_0_attn_proj_conv_bias_to_fp16 = const()[name = tensor<string, []>("model_10_m_0_attn_proj_conv_bias_to_fp16"), val = tensor<fp16, [256]>(BLOBFILE(path = tensor<string, []>("@model_path/weights/weight.bin"), offset = tensor<uint64, []>(9820352)))];
            tensor<fp16, [1, 256, 20, 20]> var_565_cast_fp16 = conv(bias = model_10_m_0_attn_proj_conv_bias_to_fp16, dilations = var_565_dilations_0, groups = var_565_groups_0, pad = var_565_pad_0, pad_type = var_565_pad_type_0, strides = var_565_strides_0, weight = model_10_m_0_attn_proj_conv_weight_to_fp16, x = input_137_cast_fp16)[name = tensor<string, []>("op_565_cast_fp16")];
            tensor<fp16, [1, 256, 20, 20]> input_139_cast_fp16 = add(x = var_506_cast_fp16_1, y = var_565_cast_fp16)[name = tensor<string, []>("input_139_cast_fp16")];
            tensor<string, []> input_141_pad_type_0 = const()[name = tensor<string, []>("input_141_pad_type_0"), val = tensor<string, []>("valid")];
            tensor<int32, [2]> input_141_strides_0 = const()[name = tensor<string, []>("input_141_strides_0"), val = tensor<int32, [2]>([1, 1])];
            tensor<int32, [4]> input_141_pad_0 = const()[name = tensor<string, []>("input_141_pad_0"), val = tensor<int32, [4]>([0, 0, 0, 0])];
            tensor<int32, [2]> input_141_dilations_0 = const()[name = tensor<string, []>("input_141_dilations_0"), val = tensor<int32, [2]>([1, 1])];
            tensor<int32, []> input_141_groups_0 = const()[name = tensor<string, []>("input_141_groups_0"), val = tensor<int32, []>(1)];
            tensor<fp16, [512, 256, 1, 1]> model_10_m_0_ffn_0_conv_weight_to_fp16 = const()[name = tensor<string, []>("model_10_m_0_ffn_0_conv_weight_to_fp16"), val = tensor<fp16, [512, 256, 1, 1]>(BLOBFILE(path = tensor<string, []>("@model_path/weights/weight.bin"), offset = tensor<uint64, []>(9820928)))];
            tensor<fp16, [512]> model_10_m_0_ffn_0_conv_bias_to_fp16 = const()[name = tensor<string, []>("model_10_m_0_ffn_0_conv_bias_to_fp16"), val = tensor<fp16, [512]>(BLOBFILE(path = tensor<string, []>("@model_path/weights/weight.bin"), offset = tensor<uint64, []>(10083136)))];
            tensor<fp16, [1, 512, 20, 20]> input_141_cast_fp16 = conv(bias = model_10_m_0_ffn_0_conv_bias_to_fp16, dilations = input_141_dilations_0, groups = input_141_groups_0, pad = input_141_pad_0, pad_type = input_141_pad_type_0, strides = input_141_strides_0, weight = model_10_m_0_ffn_0_conv_weight_to_fp16, x = input_139_cast_fp16)[name = tensor<string, []>("input_141_cast_fp16")];
            tensor<fp16, [1, 512, 20, 20]> input_143_cast_fp16 = silu(x = input_141_cast_fp16)[name = tensor<string, []>("input_143_cast_fp16")];
            tensor<string, []> var_585_pad_type_0 = const()[name = tensor<string, []>("op_585_pad_type_0"), val = tensor<string, []>("valid")];
            tensor<int32, [2]> var_585_strides_0 = const()[name = tensor<string, []>("op_585_strides_0"), val = tensor<int32, [2]>([1, 1])];
            tensor<int32, [4]> var_585_pad_0 = const()[name = tensor<string, []>("op_585_pad_0"), val = tensor<int32, [4]>([0, 0, 0, 0])];
            tensor<int32, [2]> var_585_dilations_0 = const()[name = tensor<string, []>("op_585_dilations_0"), val = tensor<int32, [2]>([1, 1])];
            tensor<int32, []> var_585_groups_0 = const()[name = tensor<string, []>("op_585_groups_0"), val = tensor<int32, []>(1)];
            tensor<fp16, [256, 512, 1, 1]> model_10_m_0_ffn_1_conv_weight_to_fp16 = const()[name = tensor<string, []>("model_10_m_0_ffn_1_conv_weight_to_fp16"), val = tensor<fp16, [256, 512, 1, 1]>(BLOBFILE(path = tensor<string, []>("@model_path/weights/weight.bin"), offset = tensor<uint64, []>(10084224)))];
            tensor<fp16, [256]> model_10_m_0_ffn_1_conv_bias_to_fp16 = const()[name = tensor<string, []>("model_10_m_0_ffn_1_conv_bias_to_fp16"), val = tensor<fp16, [256]>(BLOBFILE(path = tensor<string, []>("@model_path/weights/weight.bin"), offset = tensor<uint64, []>(10346432)))];
            tensor<fp16, [1, 256, 20, 20]> var_585_cast_fp16 = conv(bias = model_10_m_0_ffn_1_conv_bias_to_fp16, dilations = var_585_dilations_0, groups = var_585_groups_0, pad = var_585_pad_0, pad_type = var_585_pad_type_0, strides = var_585_strides_0, weight = model_10_m_0_ffn_1_conv_weight_to_fp16, x = input_143_cast_fp16)[name = tensor<string, []>("op_585_cast_fp16")];
            tensor<fp16, [1, 256, 20, 20]> b_cast_fp16 = add(x = input_139_cast_fp16, y = var_585_cast_fp16)[name = tensor<string, []>("b_cast_fp16")];
            tensor<bool, []> input_145_interleave_0 = const()[name = tensor<string, []>("input_145_interleave_0"), val = tensor<bool, []>(false)];
            tensor<fp16, [1, 512, 20, 20]> input_145_cast_fp16 = concat(axis = var_492, interleave = input_145_interleave_0, values = (var_506_cast_fp16_0, b_cast_fp16))[name = tensor<string, []>("input_145_cast_fp16")];
            tensor<string, []> input_147_pad_type_0 = const()[name = tensor<string, []>("input_147_pad_type_0"), val = tensor<string, []>("valid")];
            tensor<int32, [2]> input_147_strides_0 = const()[name = tensor<string, []>("input_147_strides_0"), val = tensor<int32, [2]>([1, 1])];
            tensor<int32, [4]> input_147_pad_0 = const()[name = tensor<string, []>("input_147_pad_0"), val = tensor<int32, [4]>([0, 0, 0, 0])];
            tensor<int32, [2]> input_147_dilations_0 = const()[name = tensor<string, []>("input_147_dilations_0"), val = tensor<int32, [2]>([1, 1])];
            tensor<int32, []> input_147_groups_0 = const()[name = tensor<string, []>("input_147_groups_0"), val = tensor<int32, []>(1)];
            tensor<fp16, [512, 512, 1, 1]> model_10_cv2_conv_weight_to_fp16 = const()[name = tensor<string, []>("model_10_cv2_conv_weight_to_fp16"), val = tensor<fp16, [512, 512, 1, 1]>(BLOBFILE(path = tensor<string, []>("@model_path/weights/weight.bin"), offset = tensor<uint64, []>(10347008)))];
            tensor<fp16, [512]> model_10_cv2_conv_bias_to_fp16 = const()[name = tensor<string, []>("model_10_cv2_conv_bias_to_fp16"), val = tensor<fp16, [512]>(BLOBFILE(path = tensor<string, []>("@model_path/weights/weight.bin"), offset = tensor<uint64, []>(10871360)))];
            tensor<fp16, [1, 512, 20, 20]> input_147_cast_fp16 = conv(bias = model_10_cv2_conv_bias_to_fp16, dilations = input_147_dilations_0, groups = input_147_groups_0, pad = input_147_pad_0, pad_type = input_147_pad_type_0, strides = input_147_strides_0, weight = model_10_cv2_conv_weight_to_fp16, x = input_145_cast_fp16)[name = tensor<string, []>("input_147_cast_fp16")];
            tensor<fp16, [1, 512, 20, 20]> input_149_cast_fp16 = silu(x = input_147_cast_fp16)[name = tensor<string, []>("input_149_cast_fp16")];
            tensor<fp32, []> var_601_scale_factor_height_0 = const()[name = tensor<string, []>("op_601_scale_factor_height_0"), val = tensor<fp32, []>(0x1p+1)];
            tensor<fp32, []> var_601_scale_factor_width_0 = const()[name = tensor<string, []>("op_601_scale_factor_width_0"), val = tensor<fp32, []>(0x1p+1)];
            tensor<fp16, [1, 512, 40, 40]> var_601_cast_fp16 = upsample_nearest_neighbor(scale_factor_height = var_601_scale_factor_height_0, scale_factor_width = var_601_scale_factor_width_0, x = input_149_cast_fp16)[name = tensor<string, []>("op_601_cast_fp16")];
            tensor<int32, []> var_602 = const()[name = tensor<string, []>("op_602"), val = tensor<int32, []>(1)];
            tensor<bool, []> input_151_interleave_0 = const()[name = tensor<string, []>("input_151_interleave_0"), val = tensor<bool, []>(false)];
            tensor<fp16, [1, 768, 40, 40]> input_151_cast_fp16 = concat(axis = var_602, interleave = input_151_interleave_0, values = (var_601_cast_fp16, input_81_cast_fp16))[name = tensor<string, []>("input_151_cast_fp16")];
            tensor<int32, []> var_609 = const()[name = tensor<string, []>("op_609"), val = tensor<int32, []>(1)];
            tensor<string, []> input_153_pad_type_0 = const()[name = tensor<string, []>("input_153_pad_type_0"), val = tensor<string, []>("valid")];
            tensor<int32, [2]> input_153_strides_0 = const()[name = tensor<string, []>("input_153_strides_0"), val = tensor<int32, [2]>([1, 1])];
            tensor<int32, [4]> input_153_pad_0 = const()[name = tensor<string, []>("input_153_pad_0"), val = tensor<int32, [4]>([0, 0, 0, 0])];
            tensor<int32, [2]> input_153_dilations_0 = const()[name = tensor<string, []>("input_153_dilations_0"), val = tensor<int32, [2]>([1, 1])];
            tensor<int32, []> input_153_groups_0 = const()[name = tensor<string, []>("input_153_groups_0"), val = tensor<int32, []>(1)];
            tensor<fp16, [256, 768, 1, 1]> model_13_cv1_conv_weight_to_fp16 = const()[name = tensor<string, []>("model_13_cv1_conv_weight_to_fp16"), val = tensor<fp16, [256, 768, 1, 1]>(BLOBFILE(path = tensor<string, []>("@model_path/weights/weight.bin"), offset = tensor<uint64, []>(10872448)))];
            tensor<fp16, [256]> model_13_cv1_conv_bias_to_fp16 = const()[name = tensor<string, []>("model_13_cv1_conv_bias_to_fp16"), val = tensor<fp16, [256]>(BLOBFILE(path = tensor<string, []>("@model_path/weights/weight.bin"), offset = tensor<uint64, []>(11265728)))];
            tensor<fp16, [1, 256, 40, 40]> input_153_cast_fp16 = conv(bias = model_13_cv1_conv_bias_to_fp16, dilations = input_153_dilations_0, groups = input_153_groups_0, pad = input_153_pad_0, pad_type = input_153_pad_type_0, strides = input_153_strides_0, weight = model_13_cv1_conv_weight_to_fp16, x = input_151_cast_fp16)[name = tensor<string, []>("input_153_cast_fp16")];
            tensor<fp16, [1, 256, 40, 40]> var_622_cast_fp16 = silu(x = input_153_cast_fp16)[name = tensor<string, []>("op_622_cast_fp16")];
            tensor<int32, [2]> var_623 = const()[name = tensor<string, []>("op_623"), val = tensor<int32, [2]>([128, 128])];
            tensor<int32, []> var_624_axis_0 = const()[name = tensor<string, []>("op_624_axis_0"), val = tensor<int32, []>(1)];
            tensor<fp16, [1, 128, 40, 40]> var_624_cast_fp16_0, tensor<fp16, [1, 128, 40, 40]> var_624_cast_fp16_1 = split(axis = var_624_axis_0, split_sizes = var_623, x = var_622_cast_fp16)[name = tensor<string, []>("op_624_cast_fp16")];
            tensor<string, []> input_157_pad_type_0 = const()[name = tensor<string, []>("input_157_pad_type_0"), val = tensor<string, []>("valid")];
            tensor<int32, [2]> input_157_strides_0 = const()[name = tensor<string, []>("input_157_strides_0"), val = tensor<int32, [2]>([1, 1])];
            tensor<int32, [4]> input_157_pad_0 = const()[name = tensor<string, []>("input_157_pad_0"), val = tensor<int32, [4]>([0, 0, 0, 0])];
            tensor<int32, [2]> input_157_dilations_0 = const()[name = tensor<string, []>("input_157_dilations_0"), val = tensor<int32, [2]>([1, 1])];
            tensor<int32, []> input_157_groups_0 = const()[name = tensor<string, []>("input_157_groups_0"), val = tensor<int32, []>(1)];
            tensor<fp16, [64, 128, 1, 1]> model_13_m_0_cv1_conv_weight_to_fp16 = const()[name = tensor<string, []>("model_13_m_0_cv1_conv_weight_to_fp16"), val = tensor<fp16, [64, 128, 1, 1]>(BLOBFILE(path = tensor<string, []>("@model_path/weights/weight.bin"), offset = tensor<uint64, []>(11266304)))];
            tensor<fp16, [64]> model_13_m_0_cv1_conv_bias_to_fp16 = const()[name = tensor<string, []>("model_13_m_0_cv1_conv_bias_to_fp16"), val = tensor<fp16, [64]>(BLOBFILE(path = tensor<string, []>("@model_path/weights/weight.bin"), offset = tensor<uint64, []>(11282752)))];
            tensor<fp16, [1, 64, 40, 40]> input_157_cast_fp16 = conv(bias = model_13_m_0_cv1_conv_bias_to_fp16, dilations = input_157_dilations_0, groups = input_157_groups_0, pad = input_157_pad_0, pad_type = input_157_pad_type_0, strides = input_157_strides_0, weight = model_13_m_0_cv1_conv_weight_to_fp16, x = var_624_cast_fp16_1)[name = tensor<string, []>("input_157_cast_fp16")];
            tensor<fp16, [1, 64, 40, 40]> input_159_cast_fp16 = silu(x = input_157_cast_fp16)[name = tensor<string, []>("input_159_cast_fp16")];
            tensor<string, []> input_161_pad_type_0 = const()[name = tensor<string, []>("input_161_pad_type_0"), val = tensor<string, []>("custom")];
            tensor<int32, [4]> input_161_pad_0 = const()[name = tensor<string, []>("input_161_pad_0"), val = tensor<int32, [4]>([1, 1, 1, 1])];
            tensor<int32, [2]> input_161_strides_0 = const()[name = tensor<string, []>("input_161_strides_0"), val = tensor<int32, [2]>([1, 1])];
            tensor<int32, [2]> input_161_dilations_0 = const()[name = tensor<string, []>("input_161_dilations_0"), val = tensor<int32, [2]>([1, 1])];
            tensor<int32, []> input_161_groups_0 = const()[name = tensor<string, []>("input_161_groups_0"), val = tensor<int32, []>(1)];
            tensor<fp16, [64, 64, 3, 3]> model_13_m_0_m_0_cv1_conv_weight_to_fp16 = const()[name = tensor<string, []>("model_13_m_0_m_0_cv1_conv_weight_to_fp16"), val = tensor<fp16, [64, 64, 3, 3]>(BLOBFILE(path = tensor<string, []>("@model_path/weights/weight.bin"), offset = tensor<uint64, []>(11282944)))];
            tensor<fp16, [64]> model_13_m_0_m_0_cv1_conv_bias_to_fp16 = const()[name = tensor<string, []>("model_13_m_0_m_0_cv1_conv_bias_to_fp16"), val = tensor<fp16, [64]>(BLOBFILE(path = tensor<string, []>("@model_path/weights/weight.bin"), offset = tensor<uint64, []>(11356736)))];
            tensor<fp16, [1, 64, 40, 40]> input_161_cast_fp16 = conv(bias = model_13_m_0_m_0_cv1_conv_bias_to_fp16, dilations = input_161_dilations_0, groups = input_161_groups_0, pad = input_161_pad_0, pad_type = input_161_pad_type_0, strides = input_161_strides_0, weight = model_13_m_0_m_0_cv1_conv_weight_to_fp16, x = input_159_cast_fp16)[name = tensor<string, []>("input_161_cast_fp16")];
            tensor<fp16, [1, 64, 40, 40]> input_163_cast_fp16 = silu(x = input_161_cast_fp16)[name = tensor<string, []>("input_163_cast_fp16")];
            tensor<string, []> input_165_pad_type_0 = const()[name = tensor<string, []>("input_165_pad_type_0"), val = tensor<string, []>("custom")];
            tensor<int32, [4]> input_165_pad_0 = const()[name = tensor<string, []>("input_165_pad_0"), val = tensor<int32, [4]>([1, 1, 1, 1])];
            tensor<int32, [2]> input_165_strides_0 = const()[name = tensor<string, []>("input_165_strides_0"), val = tensor<int32, [2]>([1, 1])];
            tensor<int32, [2]> input_165_dilations_0 = const()[name = tensor<string, []>("input_165_dilations_0"), val = tensor<int32, [2]>([1, 1])];
            tensor<int32, []> input_165_groups_0 = const()[name = tensor<string, []>("input_165_groups_0"), val = tensor<int32, []>(1)];
            tensor<fp16, [64, 64, 3, 3]> model_13_m_0_m_0_cv2_conv_weight_to_fp16 = const()[name = tensor<string, []>("model_13_m_0_m_0_cv2_conv_weight_to_fp16"), val = tensor<fp16, [64, 64, 3, 3]>(BLOBFILE(path = tensor<string, []>("@model_path/weights/weight.bin"), offset = tensor<uint64, []>(11356928)))];
            tensor<fp16, [64]> model_13_m_0_m_0_cv2_conv_bias_to_fp16 = const()[name = tensor<string, []>("model_13_m_0_m_0_cv2_conv_bias_to_fp16"), val = tensor<fp16, [64]>(BLOBFILE(path = tensor<string, []>("@model_path/weights/weight.bin"), offset = tensor<uint64, []>(11430720)))];
            tensor<fp16, [1, 64, 40, 40]> input_165_cast_fp16 = conv(bias = model_13_m_0_m_0_cv2_conv_bias_to_fp16, dilations = input_165_dilations_0, groups = input_165_groups_0, pad = input_165_pad_0, pad_type = input_165_pad_type_0, strides = input_165_strides_0, weight = model_13_m_0_m_0_cv2_conv_weight_to_fp16, x = input_163_cast_fp16)[name = tensor<string, []>("input_165_cast_fp16")];
            tensor<fp16, [1, 64, 40, 40]> var_661_cast_fp16 = silu(x = input_165_cast_fp16)[name = tensor<string, []>("op_661_cast_fp16")];
            tensor<fp16, [1, 64, 40, 40]> input_167_cast_fp16 = add(x = input_159_cast_fp16, y = var_661_cast_fp16)[name = tensor<string, []>("input_167_cast_fp16")];
            tensor<string, []> input_169_pad_type_0 = const()[name = tensor<string, []>("input_169_pad_type_0"), val = tensor<string, []>("custom")];
            tensor<int32, [4]> input_169_pad_0 = const()[name = tensor<string, []>("input_169_pad_0"), val = tensor<int32, [4]>([1, 1, 1, 1])];
            tensor<int32, [2]> input_169_strides_0 = const()[name = tensor<string, []>("input_169_strides_0"), val = tensor<int32, [2]>([1, 1])];
            tensor<int32, [2]> input_169_dilations_0 = const()[name = tensor<string, []>("input_169_dilations_0"), val = tensor<int32, [2]>([1, 1])];
            tensor<int32, []> input_169_groups_0 = const()[name = tensor<string, []>("input_169_groups_0"), val = tensor<int32, []>(1)];
            tensor<fp16, [64, 64, 3, 3]> model_13_m_0_m_1_cv1_conv_weight_to_fp16 = const()[name = tensor<string, []>("model_13_m_0_m_1_cv1_conv_weight_to_fp16"), val = tensor<fp16, [64, 64, 3, 3]>(BLOBFILE(path = tensor<string, []>("@model_path/weights/weight.bin"), offset = tensor<uint64, []>(11430912)))];
            tensor<fp16, [64]> model_13_m_0_m_1_cv1_conv_bias_to_fp16 = const()[name = tensor<string, []>("model_13_m_0_m_1_cv1_conv_bias_to_fp16"), val = tensor<fp16, [64]>(BLOBFILE(path = tensor<string, []>("@model_path/weights/weight.bin"), offset = tensor<uint64, []>(11504704)))];
            tensor<fp16, [1, 64, 40, 40]> input_169_cast_fp16 = conv(bias = model_13_m_0_m_1_cv1_conv_bias_to_fp16, dilations = input_169_dilations_0, groups = input_169_groups_0, pad = input_169_pad_0, pad_type = input_169_pad_type_0, strides = input_169_strides_0, weight = model_13_m_0_m_1_cv1_conv_weight_to_fp16, x = input_167_cast_fp16)[name = tensor<string, []>("input_169_cast_fp16")];
            tensor<fp16, [1, 64, 40, 40]> input_171_cast_fp16 = silu(x = input_169_cast_fp16)[name = tensor<string, []>("input_171_cast_fp16")];
            tensor<string, []> input_173_pad_type_0 = const()[name = tensor<string, []>("input_173_pad_type_0"), val = tensor<string, []>("custom")];
            tensor<int32, [4]> input_173_pad_0 = const()[name = tensor<string, []>("input_173_pad_0"), val = tensor<int32, [4]>([1, 1, 1, 1])];
            tensor<int32, [2]> input_173_strides_0 = const()[name = tensor<string, []>("input_173_strides_0"), val = tensor<int32, [2]>([1, 1])];
            tensor<int32, [2]> input_173_dilations_0 = const()[name = tensor<string, []>("input_173_dilations_0"), val = tensor<int32, [2]>([1, 1])];
            tensor<int32, []> input_173_groups_0 = const()[name = tensor<string, []>("input_173_groups_0"), val = tensor<int32, []>(1)];
            tensor<fp16, [64, 64, 3, 3]> model_13_m_0_m_1_cv2_conv_weight_to_fp16 = const()[name = tensor<string, []>("model_13_m_0_m_1_cv2_conv_weight_to_fp16"), val = tensor<fp16, [64, 64, 3, 3]>(BLOBFILE(path = tensor<string, []>("@model_path/weights/weight.bin"), offset = tensor<uint64, []>(11504896)))];
            tensor<fp16, [64]> model_13_m_0_m_1_cv2_conv_bias_to_fp16 = const()[name = tensor<string, []>("model_13_m_0_m_1_cv2_conv_bias_to_fp16"), val = tensor<fp16, [64]>(BLOBFILE(path = tensor<string, []>("@model_path/weights/weight.bin"), offset = tensor<uint64, []>(11578688)))];
            tensor<fp16, [1, 64, 40, 40]> input_173_cast_fp16 = conv(bias = model_13_m_0_m_1_cv2_conv_bias_to_fp16, dilations = input_173_dilations_0, groups = input_173_groups_0, pad = input_173_pad_0, pad_type = input_173_pad_type_0, strides = input_173_strides_0, weight = model_13_m_0_m_1_cv2_conv_weight_to_fp16, x = input_171_cast_fp16)[name = tensor<string, []>("input_173_cast_fp16")];
            tensor<fp16, [1, 64, 40, 40]> var_682_cast_fp16 = silu(x = input_173_cast_fp16)[name = tensor<string, []>("op_682_cast_fp16")];
            tensor<fp16, [1, 64, 40, 40]> var_683_cast_fp16 = add(x = input_167_cast_fp16, y = var_682_cast_fp16)[name = tensor<string, []>("op_683_cast_fp16")];
            tensor<string, []> input_175_pad_type_0 = const()[name = tensor<string, []>("input_175_pad_type_0"), val = tensor<string, []>("valid")];
            tensor<int32, [2]> input_175_strides_0 = const()[name = tensor<string, []>("input_175_strides_0"), val = tensor<int32, [2]>([1, 1])];
            tensor<int32, [4]> input_175_pad_0 = const()[name = tensor<string, []>("input_175_pad_0"), val = tensor<int32, [4]>([0, 0, 0, 0])];
            tensor<int32, [2]> input_175_dilations_0 = const()[name = tensor<string, []>("input_175_dilations_0"), val = tensor<int32, [2]>([1, 1])];
            tensor<int32, []> input_175_groups_0 = const()[name = tensor<string, []>("input_175_groups_0"), val = tensor<int32, []>(1)];
            tensor<fp16, [64, 128, 1, 1]> model_13_m_0_cv2_conv_weight_to_fp16 = const()[name = tensor<string, []>("model_13_m_0_cv2_conv_weight_to_fp16"), val = tensor<fp16, [64, 128, 1, 1]>(BLOBFILE(path = tensor<string, []>("@model_path/weights/weight.bin"), offset = tensor<uint64, []>(11578880)))];
            tensor<fp16, [64]> model_13_m_0_cv2_conv_bias_to_fp16 = const()[name = tensor<string, []>("model_13_m_0_cv2_conv_bias_to_fp16"), val = tensor<fp16, [64]>(BLOBFILE(path = tensor<string, []>("@model_path/weights/weight.bin"), offset = tensor<uint64, []>(11595328)))];
            tensor<fp16, [1, 64, 40, 40]> input_175_cast_fp16 = conv(bias = model_13_m_0_cv2_conv_bias_to_fp16, dilations = input_175_dilations_0, groups = input_175_groups_0, pad = input_175_pad_0, pad_type = input_175_pad_type_0, strides = input_175_strides_0, weight = model_13_m_0_cv2_conv_weight_to_fp16, x = var_624_cast_fp16_1)[name = tensor<string, []>("input_175_cast_fp16")];
            tensor<fp16, [1, 64, 40, 40]> var_692_cast_fp16 = silu(x = input_175_cast_fp16)[name = tensor<string, []>("op_692_cast_fp16")];
            tensor<bool, []> input_177_interleave_0 = const()[name = tensor<string, []>("input_177_interleave_0"), val = tensor<bool, []>(false)];
            tensor<fp16, [1, 128, 40, 40]> input_177_cast_fp16 = concat(axis = var_609, interleave = input_177_interleave_0, values = (var_683_cast_fp16, var_692_cast_fp16))[name = tensor<string, []>("input_177_cast_fp16")];
            tensor<string, []> input_179_pad_type_0 = const()[name = tensor<string, []>("input_179_pad_type_0"), val = tensor<string, []>("valid")];
            tensor<int32, [2]> input_179_strides_0 = const()[name = tensor<string, []>("input_179_strides_0"), val = tensor<int32, [2]>([1, 1])];
            tensor<int32, [4]> input_179_pad_0 = const()[name = tensor<string, []>("input_179_pad_0"), val = tensor<int32, [4]>([0, 0, 0, 0])];
            tensor<int32, [2]> input_179_dilations_0 = const()[name = tensor<string, []>("input_179_dilations_0"), val = tensor<int32, [2]>([1, 1])];
            tensor<int32, []> input_179_groups_0 = const()[name = tensor<string, []>("input_179_groups_0"), val = tensor<int32, []>(1)];
            tensor<fp16, [128, 128, 1, 1]> model_13_m_0_cv3_conv_weight_to_fp16 = const()[name = tensor<string, []>("model_13_m_0_cv3_conv_weight_to_fp16"), val = tensor<fp16, [128, 128, 1, 1]>(BLOBFILE(path = tensor<string, []>("@model_path/weights/weight.bin"), offset = tensor<uint64, []>(11595520)))];
            tensor<fp16, [128]> model_13_m_0_cv3_conv_bias_to_fp16 = const()[name = tensor<string, []>("model_13_m_0_cv3_conv_bias_to_fp16"), val = tensor<fp16, [128]>(BLOBFILE(path = tensor<string, []>("@model_path/weights/weight.bin"), offset = tensor<uint64, []>(11628352)))];
            tensor<fp16, [1, 128, 40, 40]> input_179_cast_fp16 = conv(bias = model_13_m_0_cv3_conv_bias_to_fp16, dilations = input_179_dilations_0, groups = input_179_groups_0, pad = input_179_pad_0, pad_type = input_179_pad_type_0, strides = input_179_strides_0, weight = model_13_m_0_cv3_conv_weight_to_fp16, x = input_177_cast_fp16)[name = tensor<string, []>("input_179_cast_fp16")];
            tensor<fp16, [1, 128, 40, 40]> var_703_cast_fp16 = silu(x = input_179_cast_fp16)[name = tensor<string, []>("op_703_cast_fp16")];
            tensor<bool, []> input_181_interleave_0 = const()[name = tensor<string, []>("input_181_interleave_0"), val = tensor<bool, []>(false)];
            tensor<fp16, [1, 384, 40, 40]> input_181_cast_fp16 = concat(axis = var_609, interleave = input_181_interleave_0, values = (var_624_cast_fp16_0, var_624_cast_fp16_1, var_703_cast_fp16))[name = tensor<string, []>("input_181_cast_fp16")];
            tensor<string, []> input_183_pad_type_0 = const()[name = tensor<string, []>("input_183_pad_type_0"), val = tensor<string, []>("valid")];
            tensor<int32, [2]> input_183_strides_0 = const()[name = tensor<string, []>("input_183_strides_0"), val = tensor<int32, [2]>([1, 1])];
            tensor<int32, [4]> input_183_pad_0 = const()[name = tensor<string, []>("input_183_pad_0"), val = tensor<int32, [4]>([0, 0, 0, 0])];
            tensor<int32, [2]> input_183_dilations_0 = const()[name = tensor<string, []>("input_183_dilations_0"), val = tensor<int32, [2]>([1, 1])];
            tensor<int32, []> input_183_groups_0 = const()[name = tensor<string, []>("input_183_groups_0"), val = tensor<int32, []>(1)];
            tensor<fp16, [256, 384, 1, 1]> model_13_cv2_conv_weight_to_fp16 = const()[name = tensor<string, []>("model_13_cv2_conv_weight_to_fp16"), val = tensor<fp16, [256, 384, 1, 1]>(BLOBFILE(path = tensor<string, []>("@model_path/weights/weight.bin"), offset = tensor<uint64, []>(11628672)))];
            tensor<fp16, [256]> model_13_cv2_conv_bias_to_fp16 = const()[name = tensor<string, []>("model_13_cv2_conv_bias_to_fp16"), val = tensor<fp16, [256]>(BLOBFILE(path = tensor<string, []>("@model_path/weights/weight.bin"), offset = tensor<uint64, []>(11825344)))];
            tensor<fp16, [1, 256, 40, 40]> input_183_cast_fp16 = conv(bias = model_13_cv2_conv_bias_to_fp16, dilations = input_183_dilations_0, groups = input_183_groups_0, pad = input_183_pad_0, pad_type = input_183_pad_type_0, strides = input_183_strides_0, weight = model_13_cv2_conv_weight_to_fp16, x = input_181_cast_fp16)[name = tensor<string, []>("input_183_cast_fp16")];
            tensor<fp16, [1, 256, 40, 40]> input_185_cast_fp16 = silu(x = input_183_cast_fp16)[name = tensor<string, []>("input_185_cast_fp16")];
            tensor<fp32, []> var_718_scale_factor_height_0 = const()[name = tensor<string, []>("op_718_scale_factor_height_0"), val = tensor<fp32, []>(0x1p+1)];
            tensor<fp32, []> var_718_scale_factor_width_0 = const()[name = tensor<string, []>("op_718_scale_factor_width_0"), val = tensor<fp32, []>(0x1p+1)];
            tensor<fp16, [1, 256, 80, 80]> var_718_cast_fp16 = upsample_nearest_neighbor(scale_factor_height = var_718_scale_factor_height_0, scale_factor_width = var_718_scale_factor_width_0, x = input_185_cast_fp16)[name = tensor<string, []>("op_718_cast_fp16")];
            tensor<int32, []> var_719 = const()[name = tensor<string, []>("op_719"), val = tensor<int32, []>(1)];
            tensor<bool, []> input_187_interleave_0 = const()[name = tensor<string, []>("input_187_interleave_0"), val = tensor<bool, []>(false)];
            tensor<fp16, [1, 512, 80, 80]> input_187_cast_fp16 = concat(axis = var_719, interleave = input_187_interleave_0, values = (var_718_cast_fp16, input_43_cast_fp16))[name = tensor<string, []>("input_187_cast_fp16")];
            tensor<int32, []> var_726 = const()[name = tensor<string, []>("op_726"), val = tensor<int32, []>(1)];
            tensor<string, []> input_189_pad_type_0 = const()[name = tensor<string, []>("input_189_pad_type_0"), val = tensor<string, []>("valid")];
            tensor<int32, [2]> input_189_strides_0 = const()[name = tensor<string, []>("input_189_strides_0"), val = tensor<int32, [2]>([1, 1])];
            tensor<int32, [4]> input_189_pad_0 = const()[name = tensor<string, []>("input_189_pad_0"), val = tensor<int32, [4]>([0, 0, 0, 0])];
            tensor<int32, [2]> input_189_dilations_0 = const()[name = tensor<string, []>("input_189_dilations_0"), val = tensor<int32, [2]>([1, 1])];
            tensor<int32, []> input_189_groups_0 = const()[name = tensor<string, []>("input_189_groups_0"), val = tensor<int32, []>(1)];
            tensor<fp16, [128, 512, 1, 1]> model_16_cv1_conv_weight_to_fp16 = const()[name = tensor<string, []>("model_16_cv1_conv_weight_to_fp16"), val = tensor<fp16, [128, 512, 1, 1]>(BLOBFILE(path = tensor<string, []>("@model_path/weights/weight.bin"), offset = tensor<uint64, []>(11825920)))];
            tensor<fp16, [128]> model_16_cv1_conv_bias_to_fp16 = const()[name = tensor<string, []>("model_16_cv1_conv_bias_to_fp16"), val = tensor<fp16, [128]>(BLOBFILE(path = tensor<string, []>("@model_path/weights/weight.bin"), offset = tensor<uint64, []>(11957056)))];
            tensor<fp16, [1, 128, 80, 80]> input_189_cast_fp16 = conv(bias = model_16_cv1_conv_bias_to_fp16, dilations = input_189_dilations_0, groups = input_189_groups_0, pad = input_189_pad_0, pad_type = input_189_pad_type_0, strides = input_189_strides_0, weight = model_16_cv1_conv_weight_to_fp16, x = input_187_cast_fp16)[name = tensor<string, []>("input_189_cast_fp16")];
            tensor<fp16, [1, 128, 80, 80]> var_739_cast_fp16 = silu(x = input_189_cast_fp16)[name = tensor<string, []>("op_739_cast_fp16")];
            tensor<int32, [2]> var_740 = const()[name = tensor<string, []>("op_740"), val = tensor<int32, [2]>([64, 64])];
            tensor<int32, []> var_741_axis_0 = const()[name = tensor<string, []>("op_741_axis_0"), val = tensor<int32, []>(1)];
            tensor<fp16, [1, 64, 80, 80]> var_741_cast_fp16_0, tensor<fp16, [1, 64, 80, 80]> var_741_cast_fp16_1 = split(axis = var_741_axis_0, split_sizes = var_740, x = var_739_cast_fp16)[name = tensor<string, []>("op_741_cast_fp16")];
            tensor<string, []> input_193_pad_type_0 = const()[name = tensor<string, []>("input_193_pad_type_0"), val = tensor<string, []>("valid")];
            tensor<int32, [2]> input_193_strides_0 = const()[name = tensor<string, []>("input_193_strides_0"), val = tensor<int32, [2]>([1, 1])];
            tensor<int32, [4]> input_193_pad_0 = const()[name = tensor<string, []>("input_193_pad_0"), val = tensor<int32, [4]>([0, 0, 0, 0])];
            tensor<int32, [2]> input_193_dilations_0 = const()[name = tensor<string, []>("input_193_dilations_0"), val = tensor<int32, [2]>([1, 1])];
            tensor<int32, []> input_193_groups_0 = const()[name = tensor<string, []>("input_193_groups_0"), val = tensor<int32, []>(1)];
            tensor<fp16, [32, 64, 1, 1]> model_16_m_0_cv1_conv_weight_to_fp16 = const()[name = tensor<string, []>("model_16_m_0_cv1_conv_weight_to_fp16"), val = tensor<fp16, [32, 64, 1, 1]>(BLOBFILE(path = tensor<string, []>("@model_path/weights/weight.bin"), offset = tensor<uint64, []>(11957376)))];
            tensor<fp16, [32]> model_16_m_0_cv1_conv_bias_to_fp16 = const()[name = tensor<string, []>("model_16_m_0_cv1_conv_bias_to_fp16"), val = tensor<fp16, [32]>(BLOBFILE(path = tensor<string, []>("@model_path/weights/weight.bin"), offset = tensor<uint64, []>(11961536)))];
            tensor<fp16, [1, 32, 80, 80]> input_193_cast_fp16 = conv(bias = model_16_m_0_cv1_conv_bias_to_fp16, dilations = input_193_dilations_0, groups = input_193_groups_0, pad = input_193_pad_0, pad_type = input_193_pad_type_0, strides = input_193_strides_0, weight = model_16_m_0_cv1_conv_weight_to_fp16, x = var_741_cast_fp16_1)[name = tensor<string, []>("input_193_cast_fp16")];
            tensor<fp16, [1, 32, 80, 80]> input_195_cast_fp16 = silu(x = input_193_cast_fp16)[name = tensor<string, []>("input_195_cast_fp16")];
            tensor<string, []> input_197_pad_type_0 = const()[name = tensor<string, []>("input_197_pad_type_0"), val = tensor<string, []>("custom")];
            tensor<int32, [4]> input_197_pad_0 = const()[name = tensor<string, []>("input_197_pad_0"), val = tensor<int32, [4]>([1, 1, 1, 1])];
            tensor<int32, [2]> input_197_strides_0 = const()[name = tensor<string, []>("input_197_strides_0"), val = tensor<int32, [2]>([1, 1])];
            tensor<int32, [2]> input_197_dilations_0 = const()[name = tensor<string, []>("input_197_dilations_0"), val = tensor<int32, [2]>([1, 1])];
            tensor<int32, []> input_197_groups_0 = const()[name = tensor<string, []>("input_197_groups_0"), val = tensor<int32, []>(1)];
            tensor<fp16, [32, 32, 3, 3]> model_16_m_0_m_0_cv1_conv_weight_to_fp16 = const()[name = tensor<string, []>("model_16_m_0_m_0_cv1_conv_weight_to_fp16"), val = tensor<fp16, [32, 32, 3, 3]>(BLOBFILE(path = tensor<string, []>("@model_path/weights/weight.bin"), offset = tensor<uint64, []>(11961664)))];
            tensor<fp16, [32]> model_16_m_0_m_0_cv1_conv_bias_to_fp16 = const()[name = tensor<string, []>("model_16_m_0_m_0_cv1_conv_bias_to_fp16"), val = tensor<fp16, [32]>(BLOBFILE(path = tensor<string, []>("@model_path/weights/weight.bin"), offset = tensor<uint64, []>(11980160)))];
            tensor<fp16, [1, 32, 80, 80]> input_197_cast_fp16 = conv(bias = model_16_m_0_m_0_cv1_conv_bias_to_fp16, dilations = input_197_dilations_0, groups = input_197_groups_0, pad = input_197_pad_0, pad_type = input_197_pad_type_0, strides = input_197_strides_0, weight = model_16_m_0_m_0_cv1_conv_weight_to_fp16, x = input_195_cast_fp16)[name = tensor<string, []>("input_197_cast_fp16")];
            tensor<fp16, [1, 32, 80, 80]> input_199_cast_fp16 = silu(x = input_197_cast_fp16)[name = tensor<string, []>("input_199_cast_fp16")];
            tensor<string, []> input_201_pad_type_0 = const()[name = tensor<string, []>("input_201_pad_type_0"), val = tensor<string, []>("custom")];
            tensor<int32, [4]> input_201_pad_0 = const()[name = tensor<string, []>("input_201_pad_0"), val = tensor<int32, [4]>([1, 1, 1, 1])];
            tensor<int32, [2]> input_201_strides_0 = const()[name = tensor<string, []>("input_201_strides_0"), val = tensor<int32, [2]>([1, 1])];
            tensor<int32, [2]> input_201_dilations_0 = const()[name = tensor<string, []>("input_201_dilations_0"), val = tensor<int32, [2]>([1, 1])];
            tensor<int32, []> input_201_groups_0 = const()[name = tensor<string, []>("input_201_groups_0"), val = tensor<int32, []>(1)];
            tensor<fp16, [32, 32, 3, 3]> model_16_m_0_m_0_cv2_conv_weight_to_fp16 = const()[name = tensor<string, []>("model_16_m_0_m_0_cv2_conv_weight_to_fp16"), val = tensor<fp16, [32, 32, 3, 3]>(BLOBFILE(path = tensor<string, []>("@model_path/weights/weight.bin"), offset = tensor<uint64, []>(11980288)))];
            tensor<fp16, [32]> model_16_m_0_m_0_cv2_conv_bias_to_fp16 = const()[name = tensor<string, []>("model_16_m_0_m_0_cv2_conv_bias_to_fp16"), val = tensor<fp16, [32]>(BLOBFILE(path = tensor<string, []>("@model_path/weights/weight.bin"), offset = tensor<uint64, []>(11998784)))];
            tensor<fp16, [1, 32, 80, 80]> input_201_cast_fp16 = conv(bias = model_16_m_0_m_0_cv2_conv_bias_to_fp16, dilations = input_201_dilations_0, groups = input_201_groups_0, pad = input_201_pad_0, pad_type = input_201_pad_type_0, strides = input_201_strides_0, weight = model_16_m_0_m_0_cv2_conv_weight_to_fp16, x = input_199_cast_fp16)[name = tensor<string, []>("input_201_cast_fp16")];
            tensor<fp16, [1, 32, 80, 80]> var_778_cast_fp16 = silu(x = input_201_cast_fp16)[name = tensor<string, []>("op_778_cast_fp16")];
            tensor<fp16, [1, 32, 80, 80]> input_203_cast_fp16 = add(x = input_195_cast_fp16, y = var_778_cast_fp16)[name = tensor<string, []>("input_203_cast_fp16")];
            tensor<string, []> input_205_pad_type_0 = const()[name = tensor<string, []>("input_205_pad_type_0"), val = tensor<string, []>("custom")];
            tensor<int32, [4]> input_205_pad_0 = const()[name = tensor<string, []>("input_205_pad_0"), val = tensor<int32, [4]>([1, 1, 1, 1])];
            tensor<int32, [2]> input_205_strides_0 = const()[name = tensor<string, []>("input_205_strides_0"), val = tensor<int32, [2]>([1, 1])];
            tensor<int32, [2]> input_205_dilations_0 = const()[name = tensor<string, []>("input_205_dilations_0"), val = tensor<int32, [2]>([1, 1])];
            tensor<int32, []> input_205_groups_0 = const()[name = tensor<string, []>("input_205_groups_0"), val = tensor<int32, []>(1)];
            tensor<fp16, [32, 32, 3, 3]> model_16_m_0_m_1_cv1_conv_weight_to_fp16 = const()[name = tensor<string, []>("model_16_m_0_m_1_cv1_conv_weight_to_fp16"), val = tensor<fp16, [32, 32, 3, 3]>(BLOBFILE(path = tensor<string, []>("@model_path/weights/weight.bin"), offset = tensor<uint64, []>(11998912)))];
            tensor<fp16, [32]> model_16_m_0_m_1_cv1_conv_bias_to_fp16 = const()[name = tensor<string, []>("model_16_m_0_m_1_cv1_conv_bias_to_fp16"), val = tensor<fp16, [32]>(BLOBFILE(path = tensor<string, []>("@model_path/weights/weight.bin"), offset = tensor<uint64, []>(12017408)))];
            tensor<fp16, [1, 32, 80, 80]> input_205_cast_fp16 = conv(bias = model_16_m_0_m_1_cv1_conv_bias_to_fp16, dilations = input_205_dilations_0, groups = input_205_groups_0, pad = input_205_pad_0, pad_type = input_205_pad_type_0, strides = input_205_strides_0, weight = model_16_m_0_m_1_cv1_conv_weight_to_fp16, x = input_203_cast_fp16)[name = tensor<string, []>("input_205_cast_fp16")];
            tensor<fp16, [1, 32, 80, 80]> input_207_cast_fp16 = silu(x = input_205_cast_fp16)[name = tensor<string, []>("input_207_cast_fp16")];
            tensor<string, []> input_209_pad_type_0 = const()[name = tensor<string, []>("input_209_pad_type_0"), val = tensor<string, []>("custom")];
            tensor<int32, [4]> input_209_pad_0 = const()[name = tensor<string, []>("input_209_pad_0"), val = tensor<int32, [4]>([1, 1, 1, 1])];
            tensor<int32, [2]> input_209_strides_0 = const()[name = tensor<string, []>("input_209_strides_0"), val = tensor<int32, [2]>([1, 1])];
            tensor<int32, [2]> input_209_dilations_0 = const()[name = tensor<string, []>("input_209_dilations_0"), val = tensor<int32, [2]>([1, 1])];
            tensor<int32, []> input_209_groups_0 = const()[name = tensor<string, []>("input_209_groups_0"), val = tensor<int32, []>(1)];
            tensor<fp16, [32, 32, 3, 3]> model_16_m_0_m_1_cv2_conv_weight_to_fp16 = const()[name = tensor<string, []>("model_16_m_0_m_1_cv2_conv_weight_to_fp16"), val = tensor<fp16, [32, 32, 3, 3]>(BLOBFILE(path = tensor<string, []>("@model_path/weights/weight.bin"), offset = tensor<uint64, []>(12017536)))];
            tensor<fp16, [32]> model_16_m_0_m_1_cv2_conv_bias_to_fp16 = const()[name = tensor<string, []>("model_16_m_0_m_1_cv2_conv_bias_to_fp16"), val = tensor<fp16, [32]>(BLOBFILE(path = tensor<string, []>("@model_path/weights/weight.bin"), offset = tensor<uint64, []>(12036032)))];
            tensor<fp16, [1, 32, 80, 80]> input_209_cast_fp16 = conv(bias = model_16_m_0_m_1_cv2_conv_bias_to_fp16, dilations = input_209_dilations_0, groups = input_209_groups_0, pad = input_209_pad_0, pad_type = input_209_pad_type_0, strides = input_209_strides_0, weight = model_16_m_0_m_1_cv2_conv_weight_to_fp16, x = input_207_cast_fp16)[name = tensor<string, []>("input_209_cast_fp16")];
            tensor<fp16, [1, 32, 80, 80]> var_799_cast_fp16 = silu(x = input_209_cast_fp16)[name = tensor<string, []>("op_799_cast_fp16")];
            tensor<fp16, [1, 32, 80, 80]> var_800_cast_fp16 = add(x = input_203_cast_fp16, y = var_799_cast_fp16)[name = tensor<string, []>("op_800_cast_fp16")];
            tensor<string, []> input_211_pad_type_0 = const()[name = tensor<string, []>("input_211_pad_type_0"), val = tensor<string, []>("valid")];
            tensor<int32, [2]> input_211_strides_0 = const()[name = tensor<string, []>("input_211_strides_0"), val = tensor<int32, [2]>([1, 1])];
            tensor<int32, [4]> input_211_pad_0 = const()[name = tensor<string, []>("input_211_pad_0"), val = tensor<int32, [4]>([0, 0, 0, 0])];
            tensor<int32, [2]> input_211_dilations_0 = const()[name = tensor<string, []>("input_211_dilations_0"), val = tensor<int32, [2]>([1, 1])];
            tensor<int32, []> input_211_groups_0 = const()[name = tensor<string, []>("input_211_groups_0"), val = tensor<int32, []>(1)];
            tensor<fp16, [32, 64, 1, 1]> model_16_m_0_cv2_conv_weight_to_fp16 = const()[name = tensor<string, []>("model_16_m_0_cv2_conv_weight_to_fp16"), val = tensor<fp16, [32, 64, 1, 1]>(BLOBFILE(path = tensor<string, []>("@model_path/weights/weight.bin"), offset = tensor<uint64, []>(12036160)))];
            tensor<fp16, [32]> model_16_m_0_cv2_conv_bias_to_fp16 = const()[name = tensor<string, []>("model_16_m_0_cv2_conv_bias_to_fp16"), val = tensor<fp16, [32]>(BLOBFILE(path = tensor<string, []>("@model_path/weights/weight.bin"), offset = tensor<uint64, []>(12040320)))];
            tensor<fp16, [1, 32, 80, 80]> input_211_cast_fp16 = conv(bias = model_16_m_0_cv2_conv_bias_to_fp16, dilations = input_211_dilations_0, groups = input_211_groups_0, pad = input_211_pad_0, pad_type = input_211_pad_type_0, strides = input_211_strides_0, weight = model_16_m_0_cv2_conv_weight_to_fp16, x = var_741_cast_fp16_1)[name = tensor<string, []>("input_211_cast_fp16")];
            tensor<fp16, [1, 32, 80, 80]> var_809_cast_fp16 = silu(x = input_211_cast_fp16)[name = tensor<string, []>("op_809_cast_fp16")];
            tensor<bool, []> input_213_interleave_0 = const()[name = tensor<string, []>("input_213_interleave_0"), val = tensor<bool, []>(false)];
            tensor<fp16, [1, 64, 80, 80]> input_213_cast_fp16 = concat(axis = var_726, interleave = input_213_interleave_0, values = (var_800_cast_fp16, var_809_cast_fp16))[name = tensor<string, []>("input_213_cast_fp16")];
            tensor<string, []> input_215_pad_type_0 = const()[name = tensor<string, []>("input_215_pad_type_0"), val = tensor<string, []>("valid")];
            tensor<int32, [2]> input_215_strides_0 = const()[name = tensor<string, []>("input_215_strides_0"), val = tensor<int32, [2]>([1, 1])];
            tensor<int32, [4]> input_215_pad_0 = const()[name = tensor<string, []>("input_215_pad_0"), val = tensor<int32, [4]>([0, 0, 0, 0])];
            tensor<int32, [2]> input_215_dilations_0 = const()[name = tensor<string, []>("input_215_dilations_0"), val = tensor<int32, [2]>([1, 1])];
            tensor<int32, []> input_215_groups_0 = const()[name = tensor<string, []>("input_215_groups_0"), val = tensor<int32, []>(1)];
            tensor<fp16, [64, 64, 1, 1]> model_16_m_0_cv3_conv_weight_to_fp16 = const()[name = tensor<string, []>("model_16_m_0_cv3_conv_weight_to_fp16"), val = tensor<fp16, [64, 64, 1, 1]>(BLOBFILE(path = tensor<string, []>("@model_path/weights/weight.bin"), offset = tensor<uint64, []>(12040448)))];
            tensor<fp16, [64]> model_16_m_0_cv3_conv_bias_to_fp16 = const()[name = tensor<string, []>("model_16_m_0_cv3_conv_bias_to_fp16"), val = tensor<fp16, [64]>(BLOBFILE(path = tensor<string, []>("@model_path/weights/weight.bin"), offset = tensor<uint64, []>(12048704)))];
            tensor<fp16, [1, 64, 80, 80]> input_215_cast_fp16 = conv(bias = model_16_m_0_cv3_conv_bias_to_fp16, dilations = input_215_dilations_0, groups = input_215_groups_0, pad = input_215_pad_0, pad_type = input_215_pad_type_0, strides = input_215_strides_0, weight = model_16_m_0_cv3_conv_weight_to_fp16, x = input_213_cast_fp16)[name = tensor<string, []>("input_215_cast_fp16")];
            tensor<fp16, [1, 64, 80, 80]> var_820_cast_fp16 = silu(x = input_215_cast_fp16)[name = tensor<string, []>("op_820_cast_fp16")];
            tensor<bool, []> input_217_interleave_0 = const()[name = tensor<string, []>("input_217_interleave_0"), val = tensor<bool, []>(false)];
            tensor<fp16, [1, 192, 80, 80]> input_217_cast_fp16 = concat(axis = var_726, interleave = input_217_interleave_0, values = (var_741_cast_fp16_0, var_741_cast_fp16_1, var_820_cast_fp16))[name = tensor<string, []>("input_217_cast_fp16")];
            tensor<string, []> input_219_pad_type_0 = const()[name = tensor<string, []>("input_219_pad_type_0"), val = tensor<string, []>("valid")];
            tensor<int32, [2]> input_219_strides_0 = const()[name = tensor<string, []>("input_219_strides_0"), val = tensor<int32, [2]>([1, 1])];
            tensor<int32, [4]> input_219_pad_0 = const()[name = tensor<string, []>("input_219_pad_0"), val = tensor<int32, [4]>([0, 0, 0, 0])];
            tensor<int32, [2]> input_219_dilations_0 = const()[name = tensor<string, []>("input_219_dilations_0"), val = tensor<int32, [2]>([1, 1])];
            tensor<int32, []> input_219_groups_0 = const()[name = tensor<string, []>("input_219_groups_0"), val = tensor<int32, []>(1)];
            tensor<fp16, [128, 192, 1, 1]> model_16_cv2_conv_weight_to_fp16 = const()[name = tensor<string, []>("model_16_cv2_conv_weight_to_fp16"), val = tensor<fp16, [128, 192, 1, 1]>(BLOBFILE(path = tensor<string, []>("@model_path/weights/weight.bin"), offset = tensor<uint64, []>(12048896)))];
            tensor<fp16, [128]> model_16_cv2_conv_bias_to_fp16 = const()[name = tensor<string, []>("model_16_cv2_conv_bias_to_fp16"), val = tensor<fp16, [128]>(BLOBFILE(path = tensor<string, []>("@model_path/weights/weight.bin"), offset = tensor<uint64, []>(12098112)))];
            tensor<fp16, [1, 128, 80, 80]> input_219_cast_fp16 = conv(bias = model_16_cv2_conv_bias_to_fp16, dilations = input_219_dilations_0, groups = input_219_groups_0, pad = input_219_pad_0, pad_type = input_219_pad_type_0, strides = input_219_strides_0, weight = model_16_cv2_conv_weight_to_fp16, x = input_217_cast_fp16)[name = tensor<string, []>("input_219_cast_fp16")];
            tensor<fp16, [1, 128, 80, 80]> input_221_cast_fp16 = silu(x = input_219_cast_fp16)[name = tensor<string, []>("input_221_cast_fp16")];
            tensor<string, []> input_223_pad_type_0 = const()[name = tensor<string, []>("input_223_pad_type_0"), val = tensor<string, []>("custom")];
            tensor<int32, [4]> input_223_pad_0 = const()[name = tensor<string, []>("input_223_pad_0"), val = tensor<int32, [4]>([1, 1, 1, 1])];
            tensor<int32, [2]> input_223_strides_0 = const()[name = tensor<string, []>("input_223_strides_0"), val = tensor<int32, [2]>([2, 2])];
            tensor<int32, [2]> input_223_dilations_0 = const()[name = tensor<string, []>("input_223_dilations_0"), val = tensor<int32, [2]>([1, 1])];
            tensor<int32, []> input_223_groups_0 = const()[name = tensor<string, []>("input_223_groups_0"), val = tensor<int32, []>(1)];
            tensor<fp16, [128, 128, 3, 3]> model_17_conv_weight_to_fp16 = const()[name = tensor<string, []>("model_17_conv_weight_to_fp16"), val = tensor<fp16, [128, 128, 3, 3]>(BLOBFILE(path = tensor<string, []>("@model_path/weights/weight.bin"), offset = tensor<uint64, []>(12098432)))];
            tensor<fp16, [128]> model_17_conv_bias_to_fp16 = const()[name = tensor<string, []>("model_17_conv_bias_to_fp16"), val = tensor<fp16, [128]>(BLOBFILE(path = tensor<string, []>("@model_path/weights/weight.bin"), offset = tensor<uint64, []>(12393408)))];
            tensor<fp16, [1, 128, 40, 40]> input_223_cast_fp16 = conv(bias = model_17_conv_bias_to_fp16, dilations = input_223_dilations_0, groups = input_223_groups_0, pad = input_223_pad_0, pad_type = input_223_pad_type_0, strides = input_223_strides_0, weight = model_17_conv_weight_to_fp16, x = input_221_cast_fp16)[name = tensor<string, []>("input_223_cast_fp16")];
            tensor<fp16, [1, 128, 40, 40]> var_845_cast_fp16 = silu(x = input_223_cast_fp16)[name = tensor<string, []>("op_845_cast_fp16")];
            tensor<int32, []> var_846 = const()[name = tensor<string, []>("op_846"), val = tensor<int32, []>(1)];
            tensor<bool, []> input_225_interleave_0 = const()[name = tensor<string, []>("input_225_interleave_0"), val = tensor<bool, []>(false)];
            tensor<fp16, [1, 384, 40, 40]> input_225_cast_fp16 = concat(axis = var_846, interleave = input_225_interleave_0, values = (var_845_cast_fp16, input_185_cast_fp16))[name = tensor<string, []>("input_225_cast_fp16")];
            tensor<int32, []> var_853 = const()[name = tensor<string, []>("op_853"), val = tensor<int32, []>(1)];
            tensor<string, []> input_227_pad_type_0 = const()[name = tensor<string, []>("input_227_pad_type_0"), val = tensor<string, []>("valid")];
            tensor<int32, [2]> input_227_strides_0 = const()[name = tensor<string, []>("input_227_strides_0"), val = tensor<int32, [2]>([1, 1])];
            tensor<int32, [4]> input_227_pad_0 = const()[name = tensor<string, []>("input_227_pad_0"), val = tensor<int32, [4]>([0, 0, 0, 0])];
            tensor<int32, [2]> input_227_dilations_0 = const()[name = tensor<string, []>("input_227_dilations_0"), val = tensor<int32, [2]>([1, 1])];
            tensor<int32, []> input_227_groups_0 = const()[name = tensor<string, []>("input_227_groups_0"), val = tensor<int32, []>(1)];
            tensor<fp16, [256, 384, 1, 1]> model_19_cv1_conv_weight_to_fp16 = const()[name = tensor<string, []>("model_19_cv1_conv_weight_to_fp16"), val = tensor<fp16, [256, 384, 1, 1]>(BLOBFILE(path = tensor<string, []>("@model_path/weights/weight.bin"), offset = tensor<uint64, []>(12393728)))];
            tensor<fp16, [256]> model_19_cv1_conv_bias_to_fp16 = const()[name = tensor<string, []>("model_19_cv1_conv_bias_to_fp16"), val = tensor<fp16, [256]>(BLOBFILE(path = tensor<string, []>("@model_path/weights/weight.bin"), offset = tensor<uint64, []>(12590400)))];
            tensor<fp16, [1, 256, 40, 40]> input_227_cast_fp16 = conv(bias = model_19_cv1_conv_bias_to_fp16, dilations = input_227_dilations_0, groups = input_227_groups_0, pad = input_227_pad_0, pad_type = input_227_pad_type_0, strides = input_227_strides_0, weight = model_19_cv1_conv_weight_to_fp16, x = input_225_cast_fp16)[name = tensor<string, []>("input_227_cast_fp16")];
            tensor<fp16, [1, 256, 40, 40]> var_866_cast_fp16 = silu(x = input_227_cast_fp16)[name = tensor<string, []>("op_866_cast_fp16")];
            tensor<int32, [2]> var_867 = const()[name = tensor<string, []>("op_867"), val = tensor<int32, [2]>([128, 128])];
            tensor<int32, []> var_868_axis_0 = const()[name = tensor<string, []>("op_868_axis_0"), val = tensor<int32, []>(1)];
            tensor<fp16, [1, 128, 40, 40]> var_868_cast_fp16_0, tensor<fp16, [1, 128, 40, 40]> var_868_cast_fp16_1 = split(axis = var_868_axis_0, split_sizes = var_867, x = var_866_cast_fp16)[name = tensor<string, []>("op_868_cast_fp16")];
            tensor<string, []> input_231_pad_type_0 = const()[name = tensor<string, []>("input_231_pad_type_0"), val = tensor<string, []>("valid")];
            tensor<int32, [2]> input_231_strides_0 = const()[name = tensor<string, []>("input_231_strides_0"), val = tensor<int32, [2]>([1, 1])];
            tensor<int32, [4]> input_231_pad_0 = const()[name = tensor<string, []>("input_231_pad_0"), val = tensor<int32, [4]>([0, 0, 0, 0])];
            tensor<int32, [2]> input_231_dilations_0 = const()[name = tensor<string, []>("input_231_dilations_0"), val = tensor<int32, [2]>([1, 1])];
            tensor<int32, []> input_231_groups_0 = const()[name = tensor<string, []>("input_231_groups_0"), val = tensor<int32, []>(1)];
            tensor<fp16, [64, 128, 1, 1]> model_19_m_0_cv1_conv_weight_to_fp16 = const()[name = tensor<string, []>("model_19_m_0_cv1_conv_weight_to_fp16"), val = tensor<fp16, [64, 128, 1, 1]>(BLOBFILE(path = tensor<string, []>("@model_path/weights/weight.bin"), offset = tensor<uint64, []>(12590976)))];
            tensor<fp16, [64]> model_19_m_0_cv1_conv_bias_to_fp16 = const()[name = tensor<string, []>("model_19_m_0_cv1_conv_bias_to_fp16"), val = tensor<fp16, [64]>(BLOBFILE(path = tensor<string, []>("@model_path/weights/weight.bin"), offset = tensor<uint64, []>(12607424)))];
            tensor<fp16, [1, 64, 40, 40]> input_231_cast_fp16 = conv(bias = model_19_m_0_cv1_conv_bias_to_fp16, dilations = input_231_dilations_0, groups = input_231_groups_0, pad = input_231_pad_0, pad_type = input_231_pad_type_0, strides = input_231_strides_0, weight = model_19_m_0_cv1_conv_weight_to_fp16, x = var_868_cast_fp16_1)[name = tensor<string, []>("input_231_cast_fp16")];
            tensor<fp16, [1, 64, 40, 40]> input_233_cast_fp16 = silu(x = input_231_cast_fp16)[name = tensor<string, []>("input_233_cast_fp16")];
            tensor<string, []> input_235_pad_type_0 = const()[name = tensor<string, []>("input_235_pad_type_0"), val = tensor<string, []>("custom")];
            tensor<int32, [4]> input_235_pad_0 = const()[name = tensor<string, []>("input_235_pad_0"), val = tensor<int32, [4]>([1, 1, 1, 1])];
            tensor<int32, [2]> input_235_strides_0 = const()[name = tensor<string, []>("input_235_strides_0"), val = tensor<int32, [2]>([1, 1])];
            tensor<int32, [2]> input_235_dilations_0 = const()[name = tensor<string, []>("input_235_dilations_0"), val = tensor<int32, [2]>([1, 1])];
            tensor<int32, []> input_235_groups_0 = const()[name = tensor<string, []>("input_235_groups_0"), val = tensor<int32, []>(1)];
            tensor<fp16, [64, 64, 3, 3]> model_19_m_0_m_0_cv1_conv_weight_to_fp16 = const()[name = tensor<string, []>("model_19_m_0_m_0_cv1_conv_weight_to_fp16"), val = tensor<fp16, [64, 64, 3, 3]>(BLOBFILE(path = tensor<string, []>("@model_path/weights/weight.bin"), offset = tensor<uint64, []>(12607616)))];
            tensor<fp16, [64]> model_19_m_0_m_0_cv1_conv_bias_to_fp16 = const()[name = tensor<string, []>("model_19_m_0_m_0_cv1_conv_bias_to_fp16"), val = tensor<fp16, [64]>(BLOBFILE(path = tensor<string, []>("@model_path/weights/weight.bin"), offset = tensor<uint64, []>(12681408)))];
            tensor<fp16, [1, 64, 40, 40]> input_235_cast_fp16 = conv(bias = model_19_m_0_m_0_cv1_conv_bias_to_fp16, dilations = input_235_dilations_0, groups = input_235_groups_0, pad = input_235_pad_0, pad_type = input_235_pad_type_0, strides = input_235_strides_0, weight = model_19_m_0_m_0_cv1_conv_weight_to_fp16, x = input_233_cast_fp16)[name = tensor<string, []>("input_235_cast_fp16")];
            tensor<fp16, [1, 64, 40, 40]> input_237_cast_fp16 = silu(x = input_235_cast_fp16)[name = tensor<string, []>("input_237_cast_fp16")];
            tensor<string, []> input_239_pad_type_0 = const()[name = tensor<string, []>("input_239_pad_type_0"), val = tensor<string, []>("custom")];
            tensor<int32, [4]> input_239_pad_0 = const()[name = tensor<string, []>("input_239_pad_0"), val = tensor<int32, [4]>([1, 1, 1, 1])];
            tensor<int32, [2]> input_239_strides_0 = const()[name = tensor<string, []>("input_239_strides_0"), val = tensor<int32, [2]>([1, 1])];
            tensor<int32, [2]> input_239_dilations_0 = const()[name = tensor<string, []>("input_239_dilations_0"), val = tensor<int32, [2]>([1, 1])];
            tensor<int32, []> input_239_groups_0 = const()[name = tensor<string, []>("input_239_groups_0"), val = tensor<int32, []>(1)];
            tensor<fp16, [64, 64, 3, 3]> model_19_m_0_m_0_cv2_conv_weight_to_fp16 = const()[name = tensor<string, []>("model_19_m_0_m_0_cv2_conv_weight_to_fp16"), val = tensor<fp16, [64, 64, 3, 3]>(BLOBFILE(path = tensor<string, []>("@model_path/weights/weight.bin"), offset = tensor<uint64, []>(12681600)))];
            tensor<fp16, [64]> model_19_m_0_m_0_cv2_conv_bias_to_fp16 = const()[name = tensor<string, []>("model_19_m_0_m_0_cv2_conv_bias_to_fp16"), val = tensor<fp16, [64]>(BLOBFILE(path = tensor<string, []>("@model_path/weights/weight.bin"), offset = tensor<uint64, []>(12755392)))];
            tensor<fp16, [1, 64, 40, 40]> input_239_cast_fp16 = conv(bias = model_19_m_0_m_0_cv2_conv_bias_to_fp16, dilations = input_239_dilations_0, groups = input_239_groups_0, pad = input_239_pad_0, pad_type = input_239_pad_type_0, strides = input_239_strides_0, weight = model_19_m_0_m_0_cv2_conv_weight_to_fp16, x = input_237_cast_fp16)[name = tensor<string, []>("input_239_cast_fp16")];
            tensor<fp16, [1, 64, 40, 40]> var_905_cast_fp16 = silu(x = input_239_cast_fp16)[name = tensor<string, []>("op_905_cast_fp16")];
            tensor<fp16, [1, 64, 40, 40]> input_241_cast_fp16 = add(x = input_233_cast_fp16, y = var_905_cast_fp16)[name = tensor<string, []>("input_241_cast_fp16")];
            tensor<string, []> input_243_pad_type_0 = const()[name = tensor<string, []>("input_243_pad_type_0"), val = tensor<string, []>("custom")];
            tensor<int32, [4]> input_243_pad_0 = const()[name = tensor<string, []>("input_243_pad_0"), val = tensor<int32, [4]>([1, 1, 1, 1])];
            tensor<int32, [2]> input_243_strides_0 = const()[name = tensor<string, []>("input_243_strides_0"), val = tensor<int32, [2]>([1, 1])];
            tensor<int32, [2]> input_243_dilations_0 = const()[name = tensor<string, []>("input_243_dilations_0"), val = tensor<int32, [2]>([1, 1])];
            tensor<int32, []> input_243_groups_0 = const()[name = tensor<string, []>("input_243_groups_0"), val = tensor<int32, []>(1)];
            tensor<fp16, [64, 64, 3, 3]> model_19_m_0_m_1_cv1_conv_weight_to_fp16 = const()[name = tensor<string, []>("model_19_m_0_m_1_cv1_conv_weight_to_fp16"), val = tensor<fp16, [64, 64, 3, 3]>(BLOBFILE(path = tensor<string, []>("@model_path/weights/weight.bin"), offset = tensor<uint64, []>(12755584)))];
            tensor<fp16, [64]> model_19_m_0_m_1_cv1_conv_bias_to_fp16 = const()[name = tensor<string, []>("model_19_m_0_m_1_cv1_conv_bias_to_fp16"), val = tensor<fp16, [64]>(BLOBFILE(path = tensor<string, []>("@model_path/weights/weight.bin"), offset = tensor<uint64, []>(12829376)))];
            tensor<fp16, [1, 64, 40, 40]> input_243_cast_fp16 = conv(bias = model_19_m_0_m_1_cv1_conv_bias_to_fp16, dilations = input_243_dilations_0, groups = input_243_groups_0, pad = input_243_pad_0, pad_type = input_243_pad_type_0, strides = input_243_strides_0, weight = model_19_m_0_m_1_cv1_conv_weight_to_fp16, x = input_241_cast_fp16)[name = tensor<string, []>("input_243_cast_fp16")];
            tensor<fp16, [1, 64, 40, 40]> input_245_cast_fp16 = silu(x = input_243_cast_fp16)[name = tensor<string, []>("input_245_cast_fp16")];
            tensor<string, []> input_247_pad_type_0 = const()[name = tensor<string, []>("input_247_pad_type_0"), val = tensor<string, []>("custom")];
            tensor<int32, [4]> input_247_pad_0 = const()[name = tensor<string, []>("input_247_pad_0"), val = tensor<int32, [4]>([1, 1, 1, 1])];
            tensor<int32, [2]> input_247_strides_0 = const()[name = tensor<string, []>("input_247_strides_0"), val = tensor<int32, [2]>([1, 1])];
            tensor<int32, [2]> input_247_dilations_0 = const()[name = tensor<string, []>("input_247_dilations_0"), val = tensor<int32, [2]>([1, 1])];
            tensor<int32, []> input_247_groups_0 = const()[name = tensor<string, []>("input_247_groups_0"), val = tensor<int32, []>(1)];
            tensor<fp16, [64, 64, 3, 3]> model_19_m_0_m_1_cv2_conv_weight_to_fp16 = const()[name = tensor<string, []>("model_19_m_0_m_1_cv2_conv_weight_to_fp16"), val = tensor<fp16, [64, 64, 3, 3]>(BLOBFILE(path = tensor<string, []>("@model_path/weights/weight.bin"), offset = tensor<uint64, []>(12829568)))];
            tensor<fp16, [64]> model_19_m_0_m_1_cv2_conv_bias_to_fp16 = const()[name = tensor<string, []>("model_19_m_0_m_1_cv2_conv_bias_to_fp16"), val = tensor<fp16, [64]>(BLOBFILE(path = tensor<string, []>("@model_path/weights/weight.bin"), offset = tensor<uint64, []>(12903360)))];
            tensor<fp16, [1, 64, 40, 40]> input_247_cast_fp16 = conv(bias = model_19_m_0_m_1_cv2_conv_bias_to_fp16, dilations = input_247_dilations_0, groups = input_247_groups_0, pad = input_247_pad_0, pad_type = input_247_pad_type_0, strides = input_247_strides_0, weight = model_19_m_0_m_1_cv2_conv_weight_to_fp16, x = input_245_cast_fp16)[name = tensor<string, []>("input_247_cast_fp16")];
            tensor<fp16, [1, 64, 40, 40]> var_926_cast_fp16 = silu(x = input_247_cast_fp16)[name = tensor<string, []>("op_926_cast_fp16")];
            tensor<fp16, [1, 64, 40, 40]> var_927_cast_fp16 = add(x = input_241_cast_fp16, y = var_926_cast_fp16)[name = tensor<string, []>("op_927_cast_fp16")];
            tensor<string, []> input_249_pad_type_0 = const()[name = tensor<string, []>("input_249_pad_type_0"), val = tensor<string, []>("valid")];
            tensor<int32, [2]> input_249_strides_0 = const()[name = tensor<string, []>("input_249_strides_0"), val = tensor<int32, [2]>([1, 1])];
            tensor<int32, [4]> input_249_pad_0 = const()[name = tensor<string, []>("input_249_pad_0"), val = tensor<int32, [4]>([0, 0, 0, 0])];
            tensor<int32, [2]> input_249_dilations_0 = const()[name = tensor<string, []>("input_249_dilations_0"), val = tensor<int32, [2]>([1, 1])];
            tensor<int32, []> input_249_groups_0 = const()[name = tensor<string, []>("input_249_groups_0"), val = tensor<int32, []>(1)];
            tensor<fp16, [64, 128, 1, 1]> model_19_m_0_cv2_conv_weight_to_fp16 = const()[name = tensor<string, []>("model_19_m_0_cv2_conv_weight_to_fp16"), val = tensor<fp16, [64, 128, 1, 1]>(BLOBFILE(path = tensor<string, []>("@model_path/weights/weight.bin"), offset = tensor<uint64, []>(12903552)))];
            tensor<fp16, [64]> model_19_m_0_cv2_conv_bias_to_fp16 = const()[name = tensor<string, []>("model_19_m_0_cv2_conv_bias_to_fp16"), val = tensor<fp16, [64]>(BLOBFILE(path = tensor<string, []>("@model_path/weights/weight.bin"), offset = tensor<uint64, []>(12920000)))];
            tensor<fp16, [1, 64, 40, 40]> input_249_cast_fp16 = conv(bias = model_19_m_0_cv2_conv_bias_to_fp16, dilations = input_249_dilations_0, groups = input_249_groups_0, pad = input_249_pad_0, pad_type = input_249_pad_type_0, strides = input_249_strides_0, weight = model_19_m_0_cv2_conv_weight_to_fp16, x = var_868_cast_fp16_1)[name = tensor<string, []>("input_249_cast_fp16")];
            tensor<fp16, [1, 64, 40, 40]> var_936_cast_fp16 = silu(x = input_249_cast_fp16)[name = tensor<string, []>("op_936_cast_fp16")];
            tensor<bool, []> input_251_interleave_0 = const()[name = tensor<string, []>("input_251_interleave_0"), val = tensor<bool, []>(false)];
            tensor<fp16, [1, 128, 40, 40]> input_251_cast_fp16 = concat(axis = var_853, interleave = input_251_interleave_0, values = (var_927_cast_fp16, var_936_cast_fp16))[name = tensor<string, []>("input_251_cast_fp16")];
            tensor<string, []> input_253_pad_type_0 = const()[name = tensor<string, []>("input_253_pad_type_0"), val = tensor<string, []>("valid")];
            tensor<int32, [2]> input_253_strides_0 = const()[name = tensor<string, []>("input_253_strides_0"), val = tensor<int32, [2]>([1, 1])];
            tensor<int32, [4]> input_253_pad_0 = const()[name = tensor<string, []>("input_253_pad_0"), val = tensor<int32, [4]>([0, 0, 0, 0])];
            tensor<int32, [2]> input_253_dilations_0 = const()[name = tensor<string, []>("input_253_dilations_0"), val = tensor<int32, [2]>([1, 1])];
            tensor<int32, []> input_253_groups_0 = const()[name = tensor<string, []>("input_253_groups_0"), val = tensor<int32, []>(1)];
            tensor<fp16, [128, 128, 1, 1]> model_19_m_0_cv3_conv_weight_to_fp16 = const()[name = tensor<string, []>("model_19_m_0_cv3_conv_weight_to_fp16"), val = tensor<fp16, [128, 128, 1, 1]>(BLOBFILE(path = tensor<string, []>("@model_path/weights/weight.bin"), offset = tensor<uint64, []>(12920192)))];
            tensor<fp16, [128]> model_19_m_0_cv3_conv_bias_to_fp16 = const()[name = tensor<string, []>("model_19_m_0_cv3_conv_bias_to_fp16"), val = tensor<fp16, [128]>(BLOBFILE(path = tensor<string, []>("@model_path/weights/weight.bin"), offset = tensor<uint64, []>(12953024)))];
            tensor<fp16, [1, 128, 40, 40]> input_253_cast_fp16 = conv(bias = model_19_m_0_cv3_conv_bias_to_fp16, dilations = input_253_dilations_0, groups = input_253_groups_0, pad = input_253_pad_0, pad_type = input_253_pad_type_0, strides = input_253_strides_0, weight = model_19_m_0_cv3_conv_weight_to_fp16, x = input_251_cast_fp16)[name = tensor<string, []>("input_253_cast_fp16")];
            tensor<fp16, [1, 128, 40, 40]> var_947_cast_fp16 = silu(x = input_253_cast_fp16)[name = tensor<string, []>("op_947_cast_fp16")];
            tensor<bool, []> input_255_interleave_0 = const()[name = tensor<string, []>("input_255_interleave_0"), val = tensor<bool, []>(false)];
            tensor<fp16, [1, 384, 40, 40]> input_255_cast_fp16 = concat(axis = var_853, interleave = input_255_interleave_0, values = (var_868_cast_fp16_0, var_868_cast_fp16_1, var_947_cast_fp16))[name = tensor<string, []>("input_255_cast_fp16")];
            tensor<string, []> input_257_pad_type_0 = const()[name = tensor<string, []>("input_257_pad_type_0"), val = tensor<string, []>("valid")];
            tensor<int32, [2]> input_257_strides_0 = const()[name = tensor<string, []>("input_257_strides_0"), val = tensor<int32, [2]>([1, 1])];
            tensor<int32, [4]> input_257_pad_0 = const()[name = tensor<string, []>("input_257_pad_0"), val = tensor<int32, [4]>([0, 0, 0, 0])];
            tensor<int32, [2]> input_257_dilations_0 = const()[name = tensor<string, []>("input_257_dilations_0"), val = tensor<int32, [2]>([1, 1])];
            tensor<int32, []> input_257_groups_0 = const()[name = tensor<string, []>("input_257_groups_0"), val = tensor<int32, []>(1)];
            tensor<fp16, [256, 384, 1, 1]> model_19_cv2_conv_weight_to_fp16 = const()[name = tensor<string, []>("model_19_cv2_conv_weight_to_fp16"), val = tensor<fp16, [256, 384, 1, 1]>(BLOBFILE(path = tensor<string, []>("@model_path/weights/weight.bin"), offset = tensor<uint64, []>(12953344)))];
            tensor<fp16, [256]> model_19_cv2_conv_bias_to_fp16 = const()[name = tensor<string, []>("model_19_cv2_conv_bias_to_fp16"), val = tensor<fp16, [256]>(BLOBFILE(path = tensor<string, []>("@model_path/weights/weight.bin"), offset = tensor<uint64, []>(13150016)))];
            tensor<fp16, [1, 256, 40, 40]> input_257_cast_fp16 = conv(bias = model_19_cv2_conv_bias_to_fp16, dilations = input_257_dilations_0, groups = input_257_groups_0, pad = input_257_pad_0, pad_type = input_257_pad_type_0, strides = input_257_strides_0, weight = model_19_cv2_conv_weight_to_fp16, x = input_255_cast_fp16)[name = tensor<string, []>("input_257_cast_fp16")];
            tensor<fp16, [1, 256, 40, 40]> input_259_cast_fp16 = silu(x = input_257_cast_fp16)[name = tensor<string, []>("input_259_cast_fp16")];
            tensor<string, []> input_261_pad_type_0 = const()[name = tensor<string, []>("input_261_pad_type_0"), val = tensor<string, []>("custom")];
            tensor<int32, [4]> input_261_pad_0 = const()[name = tensor<string, []>("input_261_pad_0"), val = tensor<int32, [4]>([1, 1, 1, 1])];
            tensor<int32, [2]> input_261_strides_0 = const()[name = tensor<string, []>("input_261_strides_0"), val = tensor<int32, [2]>([2, 2])];
            tensor<int32, [2]> input_261_dilations_0 = const()[name = tensor<string, []>("input_261_dilations_0"), val = tensor<int32, [2]>([1, 1])];
            tensor<int32, []> input_261_groups_0 = const()[name = tensor<string, []>("input_261_groups_0"), val = tensor<int32, []>(1)];
            tensor<fp16, [256, 256, 3, 3]> model_20_conv_weight_to_fp16 = const()[name = tensor<string, []>("model_20_conv_weight_to_fp16"), val = tensor<fp16, [256, 256, 3, 3]>(BLOBFILE(path = tensor<string, []>("@model_path/weights/weight.bin"), offset = tensor<uint64, []>(13150592)))];
            tensor<fp16, [256]> model_20_conv_bias_to_fp16 = const()[name = tensor<string, []>("model_20_conv_bias_to_fp16"), val = tensor<fp16, [256]>(BLOBFILE(path = tensor<string, []>("@model_path/weights/weight.bin"), offset = tensor<uint64, []>(14330304)))];
            tensor<fp16, [1, 256, 20, 20]> input_261_cast_fp16 = conv(bias = model_20_conv_bias_to_fp16, dilations = input_261_dilations_0, groups = input_261_groups_0, pad = input_261_pad_0, pad_type = input_261_pad_type_0, strides = input_261_strides_0, weight = model_20_conv_weight_to_fp16, x = input_259_cast_fp16)[name = tensor<string, []>("input_261_cast_fp16")];
            tensor<fp16, [1, 256, 20, 20]> var_972_cast_fp16 = silu(x = input_261_cast_fp16)[name = tensor<string, []>("op_972_cast_fp16")];
            tensor<int32, []> var_973 = const()[name = tensor<string, []>("op_973"), val = tensor<int32, []>(1)];
            tensor<bool, []> input_263_interleave_0 = const()[name = tensor<string, []>("input_263_interleave_0"), val = tensor<bool, []>(false)];
            tensor<fp16, [1, 768, 20, 20]> input_263_cast_fp16 = concat(axis = var_973, interleave = input_263_interleave_0, values = (var_972_cast_fp16, input_149_cast_fp16))[name = tensor<string, []>("input_263_cast_fp16")];
            tensor<int32, []> var_983 = const()[name = tensor<string, []>("op_983"), val = tensor<int32, []>(-1)];
            tensor<int32, []> var_989 = const()[name = tensor<string, []>("op_989"), val = tensor<int32, []>(1)];
            tensor<string, []> input_265_pad_type_0 = const()[name = tensor<string, []>("input_265_pad_type_0"), val = tensor<string, []>("valid")];
            tensor<int32, [2]> input_265_strides_0 = const()[name = tensor<string, []>("input_265_strides_0"), val = tensor<int32, [2]>([1, 1])];
            tensor<int32, [4]> input_265_pad_0 = const()[name = tensor<string, []>("input_265_pad_0"), val = tensor<int32, [4]>([0, 0, 0, 0])];
            tensor<int32, [2]> input_265_dilations_0 = const()[name = tensor<string, []>("input_265_dilations_0"), val = tensor<int32, [2]>([1, 1])];
            tensor<int32, []> input_265_groups_0 = const()[name = tensor<string, []>("input_265_groups_0"), val = tensor<int32, []>(1)];
            tensor<fp16, [512, 768, 1, 1]> model_22_cv1_conv_weight_to_fp16 = const()[name = tensor<string, []>("model_22_cv1_conv_weight_to_fp16"), val = tensor<fp16, [512, 768, 1, 1]>(BLOBFILE(path = tensor<string, []>("@model_path/weights/weight.bin"), offset = tensor<uint64, []>(14330880)))];
            tensor<fp16, [512]> model_22_cv1_conv_bias_to_fp16 = const()[name = tensor<string, []>("model_22_cv1_conv_bias_to_fp16"), val = tensor<fp16, [512]>(BLOBFILE(path = tensor<string, []>("@model_path/weights/weight.bin"), offset = tensor<uint64, []>(15117376)))];
            tensor<fp16, [1, 512, 20, 20]> input_265_cast_fp16 = conv(bias = model_22_cv1_conv_bias_to_fp16, dilations = input_265_dilations_0, groups = input_265_groups_0, pad = input_265_pad_0, pad_type = input_265_pad_type_0, strides = input_265_strides_0, weight = model_22_cv1_conv_weight_to_fp16, x = input_263_cast_fp16)[name = tensor<string, []>("input_265_cast_fp16")];
            tensor<fp16, [1, 512, 20, 20]> var_1002_cast_fp16 = silu(x = input_265_cast_fp16)[name = tensor<string, []>("op_1002_cast_fp16")];
…
            tensor<int32, [3]> var_1178 = const()[name = tensor<string, []>("op_1178"), val = tensor<int32, [3]>([1, 4, -1])];
            tensor<fp16, [1, 4, 6400]> var_1179_cast_fp16 = reshape(shape = var_1178, x = var_1177_cast_fp16)[name = tensor<string, []>("op_1179_cast_fp16")];
            tensor<string, []> input_301_pad_type_0 = const()[name = tensor<string, []>("input_301_pad_type_0"), val = tensor<string, []>("custom")];
            tensor<int32, [4]> input_301_pad_0 = const()[name = tensor<string, []>("input_301_pad_0"), val = tensor<int32, [4]>([1, 1, 1, 1])];
            tensor<int32, [2]> input_301_strides_0 = const()[name = tensor<string, []>("input_301_strides_0"), val = tensor<int32, [2]>([1, 1])];
            tensor<int32, [2]> input_301_dilations_0 = const()[name = tensor<string, []>("input_301_dilations_0"), val = tensor<int32, [2]>([1, 1])];
            tensor<int32, []> input_301_groups_0 = const()[name = tensor<string, []>("input_301_groups_0"), val = tensor<int32, []>(1)];
            tensor<fp16, [32, 256, 3, 3]> model_23_one2one_cv2_1_0_conv_weight_to_fp16 = const()[name = tensor<string, []>("model_23_one2one_cv2_1_0_conv_weight_to_fp16"), val = tensor<fp16, [32, 256, 3, 3]>(BLOBFILE(path = tensor<string, []>("@model_path/weights/weight.bin"), offset = tensor<uint64, []>(18105920)))];
            tensor<fp16, [32]> model_23_one2one_cv2_1_0_conv_bias_to_fp16 = const()[name = tensor<string, []>("model_23_one2one_cv2_1_0_conv_bias_to_fp16"), val = tensor<fp16, [32]>(BLOBFILE(path = tensor<string, []>("@model_path/weights/weight.bin"), offset = tensor<uint64, []>(18253440)))];
            tensor<fp16, [1, 32, 40, 40]> input_301_cast_fp16 = conv(bias = model_23_one2one_cv2_1_0_conv_bias_to_fp16, dilations = input_301_dilations_0, groups = input_301_groups_0, pad = input_301_pad_0, pad_type = input_301_pad_type_0, strides = input_301_strides_0, weight = model_23_one2one_cv2_1_0_conv_weight_to_fp16, x = input_259_cast_fp16)[name = tensor<string, []>("input_301_cast_fp16")];
            tensor<fp16, [1, 32, 40, 40]> input_303_cast_fp16 = silu(x = input_301_cast_fp16)[name = tensor<string, []>("input_303_cast_fp16")];
            tensor<string, []> input_305_pad_type_0 = const()[name = tensor<string, []>("input_305_pad_type_0"), val = tensor<string, []>("custom")];
            tensor<int32, [4]> input_305_pad_0 = const()[name = tensor<string, []>("input_305_pad_0"), val = tensor<int32, [4]>([1, 1, 1, 1])];
            tensor<int32, [2]> input_305_strides_0 = const()[name = tensor<string, []>("input_305_strides_0"), val = tensor<int32, [2]>([1, 1])];
            tensor<int32, [2]> input_305_dilations_0 = const()[name = tensor<string, []>("input_305_dilations_0"), val = tensor<int32, [2]>([1, 1])];
            tensor<int32, []> input_305_groups_0 = const()[name = tensor<string, []>("input_305_groups_0"), val = tensor<int32, []>(1)];
            tensor<fp16, [32, 32, 3, 3]> model_23_one2one_cv2_1_1_conv_weight_to_fp16 = const()[name = tensor<string, []>("model_23_one2one_cv2_1_1_conv_weight_to_fp16"), val = tensor<fp16, [32, 32, 3, 3]>(BLOBFILE(path = tensor<string, []>("@model_path/weights/weight.bin"), offset = tensor<uint64, []>(18253568)))];
            tensor<fp16, [32]> model_23_one2one_cv2_1_1_conv_bias_to_fp16 = const()[name = tensor<string, []>("model_23_one2one_cv2_1_1_conv_bias_to_fp16"), val = tensor<fp16, [32]>(BLOBFILE(path = tensor<string, []>("@model_path/weights/weight.bin"), offset = tensor<uint64, []>(18272064)))];
            tensor<fp16, [1, 32, 40, 40]> input_305_cast_fp16 = conv(bias = model_23_one2one_cv2_1_1_conv_bias_to_fp16, dilations = input_305_dilations_0, groups = input_305_groups_0, pad = input_305_pad_0, pad_type = input_305_pad_type_0, strides = input_305_strides_0, weight = model_23_one2one_cv2_1_1_conv_weight_to_fp16, x = input_303_cast_fp16)[name = tensor<string, []>("input_305_cast_fp16")];
            tensor<fp16, [1, 32, 40, 40]> input_307_cast_fp16 = silu(x = input_305_cast_fp16)[name = tensor<string, []>("input_307_cast_fp16")];
            tensor<string, []> var_1207_pad_type_0 = const()[name = tensor<string, []>("op_1207_pad_type_0"), val = tensor<string, []>("valid")];
            tensor<int32, [2]> var_1207_strides_0 = const()[name = tensor<string, []>("op_1207_strides_0"), val = tensor<int32, [2]>([1, 1])];
            tensor<int32, [4]> var_1207_pad_0 = const()[name = tensor<string, []>("op_1207_pad_0"), val = tensor<int32, [4]>([0, 0, 0, 0])];
            tensor<int32, [2]> var_1207_dilations_0 = const()[name = tensor<string, []>("op_1207_dilations_0"), val = tensor<int32, [2]>([1, 1])];
            tensor<int32, []> var_1207_groups_0 = const()[name = tensor<string, []>("op_1207_groups_0"), val = tensor<int32, []>(1)];
            tensor<fp16, [4, 32, 1, 1]> model_23_one2one_cv2_1_2_weight_to_fp16 = const()[name = tensor<string, []>("model_23_one2one_cv2_1_2_weight_to_fp16"), val = tensor<fp16, [4, 32, 1, 1]>(BLOBFILE(path = tensor<string, []>("@model_path/weights/weight.bin"), offset = tensor<uint64, []>(18272192)))];
            tensor<fp16, [4]> model_23_one2one_cv2_1_2_bias_to_fp16 = const()[name = tensor<string, []>("model_23_one2one_cv2_1_2_bias_to_fp16"), val = tensor<fp16, [4]>([0x1.35p+0, 0x1.704p+0, 0x1.07cp+0, 0x1.648p+0])];
            tensor<fp16, [1, 4, 40, 40]> var_1207_cast_fp16 = conv(bias = model_23_one2one_cv2_1_2_bias_to_fp16, dilations = var_1207_dilations_0, groups = var_1207_groups_0, pad = var_1207_pad_0, pad_type = var_1207_pad_type_0, strides = var_1207_strides_0, weight = model_23_one2one_cv2_1_2_weight_to_fp16, x = input_307_cast_fp16)[name = tensor<string, []>("op_1207_cast_fp16")];
            tensor<int32, [3]> var_1208 = const()[name = tensor<string, []>("op_1208"), val = tensor<int32, [3]>([1, 4, -1])];
            tensor<fp16, [1, 4, 1600]> var_1209_cast_fp16 = reshape(shape = var_1208, x = var_1207_cast_fp16)[name = tensor<string, []>("op_1209_cast_fp16")];
            tensor<string, []> input_311_pad_type_0 = const()[name = tensor<string, []>("input_311_pad_type_0"), val = tensor<string, []>("custom")];
            tensor<int32, [4]> input_311_pad_0 = const()[name = tensor<string, []>("input_311_pad_0"), val = tensor<int32, [4]>([1, 1, 1, 1])];
            tensor<int32, [2]> input_311_strides_0 = const()[name = tensor<string, []>("input_311_strides_0"), val = tensor<int32, [2]>([1, 1])];
            tensor<int32, [2]> input_311_dilations_0 = const()[name = tensor<string, []>("input_311_dilations_0"), val = tensor<int32, [2]>([1, 1])];
            tensor<int32, []> input_311_groups_0 = const()[name = tensor<string, []>("input_311_groups_0"), val = tensor<int32, []>(1)];
            tensor<fp16, [32, 512, 3, 3]> model_23_one2one_cv2_2_0_conv_weight_to_fp16 = const()[name = tensor<string, []>("model_23_one2one_cv2_2_0_conv_weight_to_fp16"), val = tensor<fp16, [32, 512, 3, 3]>(BLOBFILE(path = tensor<string, []>("@model_path/weights/weight.bin"), offset = tensor<uint64, []>(18272512)))];
            tensor<fp16, [32]> model_23_one2one_cv2_2_0_conv_bias_to_fp16 = const()[name = tensor<string, []>("model_23_one2one_cv2_2_0_conv_bias_to_fp16"), val = tensor<fp16, [32]>(BLOBFILE(path = tensor<string, []>("@model_path/weights/weight.bin"), offset = tensor<uint64, []>(18567488)))];
            tensor<fp16, [1, 32, 20, 20]> input_311_cast_fp16 = conv(bias = model_23_one2one_cv2_2_0_conv_bias_to_fp16, dilations = input_311_dilations_0, groups = input_311_groups_0, pad = input_311_pad_0, pad_type = input_311_pad_type_0, strides = input_311_strides_0, weight = model_23_one2one_cv2_2_0_conv_weight_to_fp16, x = xi_cast_fp16)[name = tensor<string, []>("input_311_cast_fp16")];
            tensor<fp16, [1, 32, 20, 20]> input_313_cast_fp16 = silu(x = input_311_cast_fp16)[name = tensor<string, []>("input_313_cast_fp16")];
            tensor<string, []> input_315_pad_type_0 = const()[name = tensor<string, []>("input_315_pad_type_0"), val = tensor<string, []>("custom")];
            tensor<int32, [4]> input_315_pad_0 = const()[name = tensor<string, []>("input_315_pad_0"), val = tensor<int32, [4]>([1, 1, 1, 1])];
            tensor<int32, [2]> input_315_strides_0 = const()[name = tensor<string, []>("input_315_strides_0"), val = tensor<int32, [2]>([1, 1])];
            tensor<int32, [2]> input_315_dilations_0 = const()[name = tensor<string, []>("input_315_dilations_0"), val = tensor<int32, [2]>([1, 1])];
            tensor<int32, []> input_315_groups_0 = const()[name = tensor<string, []>("input_315_groups_0"), val = tensor<int32, []>(1)];
            tensor<fp16, [32, 32, 3, 3]> model_23_one2one_cv2_2_1_conv_weight_to_fp16 = const()[name = tensor<string, []>("model_23_one2one_cv2_2_1_conv_weight_to_fp16"), val = tensor<fp16, [32, 32, 3, 3]>(BLOBFILE(path = tensor<string, []>("@model_path/weights/weight.bin"), offset = tensor<uint64, []>(18567616)))];
            tensor<fp16, [32]> model_23_one2one_cv2_2_1_conv_bias_to_fp16 = const()[name = tensor<string, []>("model_23_one2one_cv2_2_1_conv_bias_to_fp16"), val = tensor<fp16, [32]>(BLOBFILE(path = tensor<string, []>("@model_path/weights/weight.bin"), offset = tensor<uint64, []>(18586112)))];
            tensor<fp16, [1, 32, 20, 20]> input_315_cast_fp16 = conv(bias = model_23_one2one_cv2_2_1_conv_bias_to_fp16, dilations = input_315_dilations_0, groups = input_315_groups_0, pad = input_315_pad_0, pad_type = input_315_pad_type_0, strides = input_315_strides_0, weight = model_23_one2one_cv2_2_1_conv_weight_to_fp16, x = input_313_cast_fp16)[name = tensor<string, []>("input_315_cast_fp16")];
            tensor<fp16, [1, 32, 20, 20]> input_317_cast_fp16 = silu(x = input_315_cast_fp16)[name = tensor<string, []>("input_317_cast_fp16")];
            tensor<string, []> var_1237_pad_type_0 = const()[name = tensor<string, []>("op_1237_pad_type_0"), val = tensor<string, []>("valid")];
            tensor<int32, [2]> var_1237_strides_0 = const()[name = tensor<string, []>("op_1237_strides_0"), val = tensor<int32, [2]>([1, 1])];
            tensor<int32, [4]> var_1237_pad_0 = const()[name = tensor<string, []>("op_1237_pad_0"), val = tensor<int32, [4]>([0, 0, 0, 0])];
            tensor<int32, [2]> var_1237_dilations_0 = const()[name = tensor<string, []>("op_1237_dilations_0"), val = tensor<int32, [2]>([1, 1])];
            tensor<int32, []> var_1237_groups_0 = const()[name = tensor<string, []>("op_1237_groups_0"), val = tensor<int32, []>(1)];
            tensor<fp16, [4, 32, 1, 1]> model_23_one2one_cv2_2_2_weight_to_fp16 = const()[name = tensor<string, []>("model_23_one2one_cv2_2_2_weight_to_fp16"), val = tensor<fp16, [4, 32, 1, 1]>(BLOBFILE(path = tensor<string, []>("@model_path/weights/weight.bin"), offset = tensor<uint64, []>(18586240)))];
            tensor<fp16, [4]> model_23_one2one_cv2_2_2_bias_to_fp16 = const()[name = tensor<string, []>("model_23_one2one_cv2_2_2_bias_to_fp16"), val = tensor<fp16, [4]>([0x1.5ap+0, 0x1.9f8p+0, 0x1.6ep+0, 0x1.db8p+0])];
            tensor<fp16, [1, 4, 20, 20]> var_1237_cast_fp16 = conv(bias = model_23_one2one_cv2_2_2_bias_to_fp16, dilations = var_1237_dilations_0, groups = var_1237_groups_0, pad = var_1237_pad_0, pad_type = var_1237_pad_type_0, strides = var_1237_strides_0, weight = model_23_one2one_cv2_2_2_weight_to_fp16, x = input_317_cast_fp16)[name = tensor<string, []>("op_1237_cast_fp16")];
            tensor<int32, [3]> var_1238 = const()[name = tensor<string, []>("op_1238"), val = tensor<int32, [3]>([1, 4, -1])];
            tensor<fp16, [1, 4, 400]> var_1239_cast_fp16 = reshape(shape = var_1238, x = var_1237_cast_fp16)[name = tensor<string, []>("op_1239_cast_fp16")];
            tensor<bool, []> distance_interleave_0 = const()[name = tensor<string, []>("distance_interleave_0"), val = tensor<bool, []>(false)];
            tensor<fp16, [1, 4, 8400]> distance_cast_fp16 = concat(axis = var_1128, interleave = distance_interleave_0, values = (var_1179_cast_fp16, var_1209_cast_fp16, var_1239_cast_fp16))[name = tensor<string, []>("distance_cast_fp16")];
            tensor<string, []> input_319_pad_type_0 = const()[name = tensor<string, []>("input_319_pad_type_0"), val = tensor<string, []>("custom")];
            tensor<int32, [4]> input_319_pad_0 = const()[name = tensor<string, []>("input_319_pad_0"), val = tensor<int32, [4]>([1, 1, 1, 1])];
            tensor<int32, []> input_319_groups_0 = const()[name = tensor<string, []>("input_319_groups_0"), val = tensor<int32, []>(128)];
            tensor<int32, [2]> input_319_strides_0 = const()[name = tensor<string, []>("input_319_strides_0"), val = tensor<int32, [2]>([1, 1])];
            tensor<int32, [2]> input_319_dilations_0 = const()[name = tensor<string, []>("input_319_dilations_0"), val = tensor<int32, [2]>([1, 1])];
            tensor<fp16, [128, 1, 3, 3]> model_23_one2one_cv3_0_0_0_conv_weight_to_fp16 = const()[name = tensor<string, []>("model_23_one2one_cv3_0_0_0_conv_weight_to_fp16"), val = tensor<fp16, [128, 1, 3, 3]>(BLOBFILE(path = tensor<string, []>("@model_path/weights/weight.bin"), offset = tensor<uint64, []>(18586560)))];
            tensor<fp16, [128]> model_23_one2one_cv3_0_0_0_conv_bias_to_fp16 = const()[name = tensor<string, []>("model_23_one2one_cv3_0_0_0_conv_bias_to_fp16"), val = tensor<fp16, [128]>(BLOBFILE(path = tensor<string, []>("@model_path/weights/weight.bin"), offset = tensor<uint64, []>(18588928)))];
            tensor<fp16, [1, 128, 80, 80]> input_319_cast_fp16 = conv(bias = model_23_one2one_cv3_0_0_0_conv_bias_to_fp16, dilations = input_319_dilations_0, groups = input_319_groups_0, pad = input_319_pad_0, pad_type = input_319_pad_type_0, strides = input_319_strides_0, weight = model_23_one2one_cv3_0_0_0_conv_weight_to_fp16, x = input_221_cast_fp16)[name = tensor<string, []>("input_319_cast_fp16")];
            tensor<fp16, [1, 128, 80, 80]> input_321_cast_fp16 = silu(x = input_319_cast_fp16)[name = tensor<string, []>("input_321_cast_fp16")];
            tensor<string, []> input_323_pad_type_0 = const()[name = tensor<string, []>("input_323_pad_type_0"), val = tensor<string, []>("valid")];
            tensor<int32, [2]> input_323_strides_0 = const()[name = tensor<string, []>("input_323_strides_0"), val = tensor<int32, [2]>([1, 1])];
            tensor<int32, [4]> input_323_pad_0 = const()[name = tensor<string, []>("input_323_pad_0"), val = tensor<int32, [4]>([0, 0, 0, 0])];
            tensor<int32, [2]> input_323_dilations_0 = const()[name = tensor<string, []>("input_323_dilations_0"), val = tensor<int32, [2]>([1, 1])];
            tensor<int32, []> input_323_groups_0 = const()[name = tensor<string, []>("input_323_groups_0"), val = tensor<int32, []>(1)];
            tensor<fp16, [128, 128, 1, 1]> model_23_one2one_cv3_0_0_1_conv_weight_to_fp16 = const()[name = tensor<string, []>("model_23_one2one_cv3_0_0_1_conv_weight_to_fp16"), val = tensor<fp16, [128, 128, 1, 1]>(BLOBFILE(path = tensor<string, []>("@model_path/weights/weight.bin"), offset = tensor<uint64, []>(18589248)))];
            tensor<fp16, [128]> model_23_one2one_cv3_0_0_1_conv_bias_to_fp16 = const()[name = tensor<string, []>("model_23_one2one_cv3_0_0_1_conv_bias_to_fp16"), val = tensor<fp16, [128]>(BLOBFILE(path = tensor<string, []>("@model_path/weights/weight.bin"), offset = tensor<uint64, []>(18622080)))];
            tensor<fp16, [1, 128, 80, 80]> input_323_cast_fp16 = conv(bias = model_23_one2one_cv3_0_0_1_conv_bias_to_fp16, dilations = input_323_dilations_0, groups = input_323_groups_0, pad = input_323_pad_0, pad_type = input_323_pad_type_0, strides = input_323_strides_0, weight = model_23_one2one_cv3_0_0_1_conv_weight_to_fp16, x = input_321_cast_fp16)[name = tensor<string, []>("input_323_cast_fp16")];
            tensor<fp16, [1, 128, 80, 80]> input_325_cast_fp16 = silu(x = input_323_cast_fp16)[name = tensor<string, []>("input_325_cast_fp16")];
            tensor<string, []> input_327_pad_type_0 = const()[name = tensor<string, []>("input_327_pad_type_0"), val = tensor<string, []>("custom")];
            tensor<int32, [4]> input_327_pad_0 = const()[name = tensor<string, []>("input_327_pad_0"), val = tensor<int32, [4]>([1, 1, 1, 1])];
            tensor<int32, []> input_327_groups_0 = const()[name = tensor<string, []>("input_327_groups_0"), val = tensor<int32, []>(128)];
            tensor<int32, [2]> input_327_strides_0 = const()[name = tensor<string, []>("input_327_strides_0"), val = tensor<int32, [2]>([1, 1])];
            tensor<int32, [2]> input_327_dilations_0 = const()[name = tensor<string, []>("input_327_dilations_0"), val = tensor<int32, [2]>([1, 1])];
            tensor<fp16, [128, 1, 3, 3]> model_23_one2one_cv3_0_1_0_conv_weight_to_fp16 = const()[name = tensor<string, []>("model_23_one2one_cv3_0_1_0_conv_weight_to_fp16"), val = tensor<fp16, [128, 1, 3, 3]>(BLOBFILE(path = tensor<string, []>("@model_path/weights/weight.bin"), offset = tensor<uint64, []>(18622400)))];
            tensor<fp16, [128]> model_23_one2one_cv3_0_1_0_conv_bias_to_fp16 = const()[name = tensor<string, []>("model_23_one2one_cv3_0_1_0_conv_bias_to_fp16"), val = tensor<fp16, [128]>(BLOBFILE(path = tensor<string, []>("@model_path/weights/weight.bin"), offset = tensor<uint64, []>(18624768)))];
            tensor<fp16, [1, 128, 80, 80]> input_327_cast_fp16 = conv(bias = model_23_one2one_cv3_0_1_0_conv_bias_to_fp16, dilations = input_327_dilations_0, groups = input_327_groups_0, pad = input_327_pad_0, pad_type = input_327_pad_type_0, strides = input_327_strides_0, weight = model_23_one2one_cv3_0_1_0_conv_weight_to_fp16, x = input_325_cast_fp16)[name = tensor<string, []>("input_327_cast_fp16")];
            tensor<fp16, [1, 128, 80, 80]> input_329_cast_fp16 = silu(x = input_327_cast_fp16)[name = tensor<string, []>("input_329_cast_fp16")];
            tensor<string, []> input_331_pad_type_0 = const()[name = tensor<string, []>("input_331_pad_type_0"), val = tensor<string, []>("valid")];
            tensor<int32, [2]> input_331_strides_0 = const()[name = tensor<string, []>("input_331_strides_0"), val = tensor<int32, [2]>([1, 1])];
            tensor<int32, [4]> input_331_pad_0 = const()[name = tensor<string, []>("input_331_pad_0"), val = tensor<int32, [4]>([0, 0, 0, 0])];
            tensor<int32, [2]> input_331_dilations_0 = const()[name = tensor<string, []>("input_331_dilations_0"), val = tensor<int32, [2]>([1, 1])];
            tensor<int32, []> input_331_groups_0 = const()[name = tensor<string, []>("input_331_groups_0"), val = tensor<int32, []>(1)];
            tensor<fp16, [128, 128, 1, 1]> model_23_one2one_cv3_0_1_1_conv_weight_to_fp16 = const()[name = tensor<string, []>("model_23_one2one_cv3_0_1_1_conv_weight_to_fp16"), val = tensor<fp16, [128, 128, 1, 1]>(BLOBFILE(path = tensor<string, []>("@model_path/weights/weight.bin"), offset = tensor<uint64, []>(18625088)))];
            tensor<fp16, [128]> model_23_one2one_cv3_0_1_1_conv_bias_to_fp16 = const()[name = tensor<string, []>("model_23_one2one_cv3_0_1_1_conv_bias_to_fp16"), val = tensor<fp16, [128]>(BLOBFILE(path = tensor<string, []>("@model_path/weights/weight.bin"), offset = tensor<uint64, []>(18657920)))];
            tensor<fp16, [1, 128, 80, 80]> input_331_cast_fp16 = conv(bias = model_23_one2one_cv3_0_1_1_conv_bias_to_fp16, dilations = input_331_dilations_0, groups = input_331_groups_0, pad = input_331_pad_0, pad_type = input_331_pad_type_0, strides = input_331_strides_0, weight = model_23_one2one_cv3_0_1_1_conv_weight_to_fp16, x = input_329_cast_fp16)[name = tensor<string, []>("input_331_cast_fp16")];
            tensor<fp16, [1, 128, 80, 80]> input_333_cast_fp16 = silu(x = input_331_cast_fp16)[name = tensor<string, []>("input_333_cast_fp16")];
            tensor<string, []> var_1291_pad_type_0 = const()[name = tensor<string, []>("op_1291_pad_type_0"), val = tensor<string, []>("valid")];
            tensor<int32, [2]> var_1291_strides_0 = const()[name = tensor<string, []>("op_1291_strides_0"), val = tensor<int32, [2]>([1, 1])];
            tensor<int32, [4]> var_1291_pad_0 = const()[name = tensor<string, []>("op_1291_pad_0"), val = tensor<int32, [4]>([0, 0, 0, 0])];
            tensor<int32, [2]> var_1291_dilations_0 = const()[name = tensor<string, []>("op_1291_dilations_0"), val = tensor<int32, [2]>([1, 1])];
            tensor<int32, []> var_1291_groups_0 = const()[name = tensor<string, []>("op_1291_groups_0"), val = tensor<int32, []>(1)];
            tensor<fp16, [1, 128, 1, 1]> model_23_one2one_cv3_0_2_weight_to_fp16 = const()[name = tensor<string, []>("model_23_one2one_cv3_0_2_weight_to_fp16"), val = tensor<fp16, [1, 128, 1, 1]>(BLOBFILE(path = tensor<string, []>("@model_path/weights/weight.bin"), offset = tensor<uint64, []>(18658240)))];
            tensor<fp16, [1]> model_23_one2one_cv3_0_2_bias_to_fp16 = const()[name = tensor<string, []>("model_23_one2one_cv3_0_2_bias_to_fp16"), val = tensor<fp16, [1]>([-0x1.cdp+2])];
            tensor<fp16, [1, 1, 80, 80]> var_1291_cast_fp16 = conv(bias = model_23_one2one_cv3_0_2_bias_to_fp16, dilations = var_1291_dilations_0, groups = var_1291_groups_0, pad = var_1291_pad_0, pad_type = var_1291_pad_type_0, strides = var_1291_strides_0, weight = model_23_one2one_cv3_0_2_weight_to_fp16, x = input_333_cast_fp16)[name = tensor<string, []>("op_1291_cast_fp16")];
            tensor<int32, [3]> var_1292 = const()[name = tensor<string, []>("op_1292"), val = tensor<int32, [3]>([1, 1, -1])];
            tensor<fp16, [1, 1, 6400]> var_1293_cast_fp16 = reshape(shape = var_1292, x = var_1291_cast_fp16)[name = tensor<string, []>("op_1293_cast_fp16")];
            tensor<string, []> input_335_pad_type_0 = const()[name = tensor<string, []>("input_335_pad_type_0"), val = tensor<string, []>("custom")];
            tensor<int32, [4]> input_335_pad_0 = const()[name = tensor<string, []>("input_335_pad_0"), val = tensor<int32, [4]>([1, 1, 1, 1])];
            tensor<int32, []> input_335_groups_0 = const()[name = tensor<string, []>("input_335_groups_0"), val = tensor<int32, []>(256)];
            tensor<int32, [2]> input_335_strides_0 = const()[name = tensor<string, []>("input_335_strides_0"), val = tensor<int32, [2]>([1, 1])];
            tensor<int32, [2]> input_335_dilations_0 = const()[name = tensor<string, []>("input_335_dilations_0"), val = tensor<int32, [2]>([1, 1])];
            tensor<fp16, [256, 1, 3, 3]> model_23_one2one_cv3_1_0_0_conv_weight_to_fp16 = const()[name = tensor<string, []>("model_23_one2one_cv3_1_0_0_conv_weight_to_fp16"), val = tensor<fp16, [256, 1, 3, 3]>(BLOBFILE(path = tensor<string, []>("@model_path/weights/weight.bin"), offset = tensor<uint64, []>(18658560)))];
            tensor<fp16, [256]> model_23_one2one_cv3_1_0_0_conv_bias_to_fp16 = const()[name = tensor<string, []>("model_23_one2one_cv3_1_0_0_conv_bias_to_fp16"), val = tensor<fp16, [256]>(BLOBFILE(path = tensor<string, []>("@model_path/weights/weight.bin"), offset = tensor<uint64, []>(18663232)))];
            tensor<fp16, [1, 256, 40, 40]> input_335_cast_fp16 = conv(bias = model_23_one2one_cv3_1_0_0_conv_bias_to_fp16, dilations = input_335_dilations_0, groups = input_335_groups_0, pad = input_335_pad_0, pad_type = input_335_pad_type_0, strides = input_335_strides_0, weight = model_23_one2one_cv3_1_0_0_conv_weight_to_fp16, x = input_259_cast_fp16)[name = tensor<string, []>("input_335_cast_fp16")];
            tensor<fp16, [1, 256, 40, 40]> input_337_cast_fp16 = silu(x = input_335_cast_fp16)[name = tensor<string, []>("input_337_cast_fp16")];
            tensor<string, []> input_339_pad_type_0 = const()[name = tensor<string, []>("input_339_pad_type_0"), val = tensor<string, []>("valid")];
            tensor<int32, [2]> input_339_strides_0 = const()[name = tensor<string, []>("input_339_strides_0"), val = tensor<int32, [2]>([1, 1])];
            tensor<int32, [4]> input_339_pad_0 = const()[name = tensor<string, []>("input_339_pad_0"), val = tensor<int32, [4]>([0, 0, 0, 0])];
            tensor<int32, [2]> input_339_dilations_0 = const()[name = tensor<string, []>("input_339_dilations_0"), val = tensor<int32, [2]>([1, 1])];
            tensor<int32, []> input_339_groups_0 = const()[name = tensor<string, []>("input_339_groups_0"), val = tensor<int32, []>(1)];
            tensor<fp16, [128, 256, 1, 1]> model_23_one2one_cv3_1_0_1_conv_weight_to_fp16 = const()[name = tensor<string, []>("model_23_one2one_cv3_1_0_1_conv_weight_to_fp16"), val = tensor<fp16, [128, 256, 1, 1]>(BLOBFILE(path = tensor<string, []>("@model_path/weights/weight.bin"), offset = tensor<uint64, []>(18663808)))];
            tensor<fp16, [128]> model_23_one2one_cv3_1_0_1_conv_bias_to_fp16 = const()[name = tensor<string, []>("model_23_one2one_cv3_1_0_1_conv_bias_to_fp16"), val = tensor<fp16, [128]>(BLOBFILE(path = tensor<string, []>("@model_path/weights/weight.bin"), offset = tensor<uint64, []>(18729408)))];
            tensor<fp16, [1, 128, 40, 40]> input_339_cast_fp16 = conv(bias = model_23_one2one_cv3_1_0_1_conv_bias_to_fp16, dilations = input_339_dilations_0, groups = input_339_groups_0, pad = input_339_pad_0, pad_type = input_339_pad_type_0, strides = input_339_strides_0, weight = model_23_one2one_cv3_1_0_1_conv_weight_to_fp16, x = input_337_cast_fp16)[name = tensor<string, []>("input_339_cast_fp16")];
            tensor<fp16, [1, 128, 40, 40]> input_341_cast_fp16 = silu(x = input_339_cast_fp16)[name = tensor<string, []>("input_341_cast_fp16")];
            tensor<string, []> input_343_pad_type_0 = const()[name = tensor<string, []>("input_343_pad_type_0"), val = tensor<string, []>("custom")];
            tensor<int32, [4]> input_343_pad_0 = const()[name = tensor<string, []>("input_343_pad_0"), val = tensor<int32, [4]>([1, 1, 1, 1])];
            tensor<int32, []> input_343_groups_0 = const()[name = tensor<string, []>("input_343_groups_0"), val = tensor<int32, []>(128)];
            tensor<int32, [2]> input_343_strides_0 = const()[name = tensor<string, []>("input_343_strides_0"), val = tensor<int32, [2]>([1, 1])];
            tensor<int32, [2]> input_343_dilations_0 = const()[name = tensor<string, []>("input_343_dilations_0"), val = tensor<int32, [2]>([1, 1])];
            tensor<fp16, [128, 1, 3, 3]> model_23_one2one_cv3_1_1_0_conv_weight_to_fp16 = const()[name = tensor<string, []>("model_23_one2one_cv3_1_1_0_conv_weight_to_fp16"), val = tensor<fp16, [128, 1, 3, 3]>(BLOBFILE(path = tensor<string, []>("@model_path/weights/weight.bin"), offset = tensor<uint64, []>(18729728)))];
            tensor<fp16, [128]> model_23_one2one_cv3_1_1_0_conv_bias_to_fp16 = const()[name = tensor<string, []>("model_23_one2one_cv3_1_1_0_conv_bias_to_fp16"), val = tensor<fp16, [128]>(BLOBFILE(path = tensor<string, []>("@model_path/weights/weight.bin"), offset = tensor<uint64, []>(18732096)))];
            tensor<fp16, [1, 128, 40, 40]> input_343_cast_fp16 = conv(bias = model_23_one2one_cv3_1_1_0_conv_bias_to_fp16, dilations = input_343_dilations_0, groups = input_343_groups_0, pad = input_343_pad_0, pad_type = input_343_pad_type_0, strides = input_343_strides_0, weight = model_23_one2one_cv3_1_1_0_conv_weight_to_fp16, x = input_341_cast_fp16)[name = tensor<string, []>("input_343_cast_fp16")];
            tensor<fp16, [1, 128, 40, 40]> input_345_cast_fp16 = silu(x = input_343_cast_fp16)[name = tensor<string, []>("input_345_cast_fp16")];
            tensor<string, []> input_347_pad_type_0 = const()[name = tensor<string, []>("input_347_pad_type_0"), val = tensor<string, []>("valid")];
            tensor<int32, [2]> input_347_strides_0 = const()[name = tensor<string, []>("input_347_strides_0"), val = tensor<int32, [2]>([1, 1])];
            tensor<int32, [4]> input_347_pad_0 = const()[name = tensor<string, []>("input_347_pad_0"), val = tensor<int32, [4]>([0, 0, 0, 0])];
            tensor<int32, [2]> input_347_dilations_0 = const()[name = tensor<string, []>("input_347_dilations_0"), val = tensor<int32, [2]>([1, 1])];
            tensor<int32, []> input_347_groups_0 = const()[name = tensor<string, []>("input_347_groups_0"), val = tensor<int32, []>(1)];
            tensor<fp16, [128, 128, 1, 1]> model_23_one2one_cv3_1_1_1_conv_weight_to_fp16 = const()[name = tensor<string, []>("model_23_one2one_cv3_1_1_1_conv_weight_to_fp16"), val = tensor<fp16, [128, 128, 1, 1]>(BLOBFILE(path = tensor<string, []>("@model_path/weights/weight.bin"), offset = tensor<uint64, []>(18732416)))];
            tensor<fp16, [128]> model_23_one2one_cv3_1_1_1_conv_bias_to_fp16 = const()[name = tensor<string, []>("model_23_one2one_cv3_1_1_1_conv_bias_to_fp16"), val = tensor<fp16, [128]>(BLOBFILE(path = tensor<string, []>("@model_path/weights/weight.bin"), offset = tensor<uint64, []>(18765248)))];
            tensor<fp16, [1, 128, 40, 40]> input_347_cast_fp16 = conv(bias = model_23_one2one_cv3_1_1_1_conv_bias_to_fp16, dilations = input_347_dilations_0, groups = input_347_groups_0, pad = input_347_pad_0, pad_type = input_347_pad_type_0, strides = input_347_strides_0, weight = model_23_one2one_cv3_1_1_1_conv_weight_to_fp16, x = input_345_cast_fp16)[name = tensor<string, []>("input_347_cast_fp16")];
            tensor<fp16, [1, 128, 40, 40]> input_349_cast_fp16 = silu(x = input_347_cast_fp16)[name = tensor<string, []>("input_349_cast_fp16")];
            tensor<string, []> var_1343_pad_type_0 = const()[name = tensor<string, []>("op_1343_pad_type_0"), val = tensor<string, []>("valid")];
            tensor<int32, [2]> var_1343_strides_0 = const()[name = tensor<string, []>("op_1343_strides_0"), val = tensor<int32, [2]>([1, 1])];
            tensor<int32, [4]> var_1343_pad_0 = const()[name = tensor<string, []>("op_1343_pad_0"), val = tensor<int32, [4]>([0, 0, 0, 0])];
            tensor<int32, [2]> var_1343_dilations_0 = const()[name = tensor<string, []>("op_1343_dilations_0"), val = tensor<int32, [2]>([1, 1])];
            tensor<int32, []> var_1343_groups_0 = const()[name = tensor<string, []>("op_1343_groups_0"), val = tensor<int32, []>(1)];
            tensor<fp16, [1, 128, 1, 1]> model_23_one2one_cv3_1_2_weight_to_fp16 = const()[name = tensor<string, []>("model_23_one2one_cv3_1_2_weight_to_fp16"), val = tensor<fp16, [1, 128, 1, 1]>(BLOBFILE(path = tensor<string, []>("@model_path/weights/weight.bin"), offset = tensor<uint64, []>(18765568)))];
            tensor<fp16, [1]> model_23_one2one_cv3_1_2_bias_to_fp16 = const()[name = tensor<string, []>("model_23_one2one_cv3_1_2_bias_to_fp16"), val = tensor<fp16, [1]>([-0x1.72cp+2])];
            tensor<fp16, [1, 1, 40, 40]> var_1343_cast_fp16 = conv(bias = model_23_one2one_cv3_1_2_bias_to_fp16, dilations = var_1343_dilations_0, groups = var_1343_groups_0, pad = var_1343_pad_0, pad_type = var_1343_pad_type_0, strides = var_1343_strides_0, weight = model_23_one2one_cv3_1_2_weight_to_fp16, x = input_349_cast_fp16)[name = tensor<string, []>("op_1343_cast_fp16")];
            tensor<int32, [3]> var_1344 = const()[name = tensor<string, []>("op_1344"), val = tensor<int32, [3]>([1, 1, -1])];
            tensor<fp16, [1, 1, 1600]> var_1345_cast_fp16 = reshape(shape = var_1344, x = var_1343_cast_fp16)[name = tensor<string, []>("op_1345_cast_fp16")];
            tensor<string, []> input_351_pad_type_0 = const()[name = tensor<string, []>("input_351_pad_type_0"), val = tensor<string, []>("custom")];
            tensor<int32, [4]> input_351_pad_0 = const()[name = tensor<string, []>("input_351_pad_0"), val = tensor<int32, [4]>([1, 1, 1, 1])];
            tensor<int32, []> input_351_groups_0 = const()[name = tensor<string, []>("input_351_groups_0"), val = tensor<int32, []>(512)];
            tensor<int32, [2]> input_351_strides_0 = const()[name = tensor<string, []>("input_351_strides_0"), val = tensor<int32, [2]>([1, 1])];
            tensor<int32, [2]> input_351_dilations_0 = const()[name = tensor<string, []>("input_351_dilations_0"), val = tensor<int32, [2]>([1, 1])];
            tensor<fp16, [512, 1, 3, 3]> model_23_one2one_cv3_2_0_0_conv_weight_to_fp16 = const()[name = tensor<string, []>("model_23_one2one_cv3_2_0_0_conv_weight_to_fp16"), val = tensor<fp16, [512, 1, 3, 3]>(BLOBFILE(path = tensor<string, []>("@model_path/weights/weight.bin"), offset = tensor<uint64, []>(18765888)))];
            tensor<fp16, [512]> model_23_one2one_cv3_2_0_0_conv_bias_to_fp16 = const()[name = tensor<string, []>("model_23_one2one_cv3_2_0_0_conv_bias_to_fp16"), val = tensor<fp16, [512]>(BLOBFILE(path = tensor<string, []>("@model_path/weights/weight.bin"), offset = tensor<uint64, []>(18775168)))];
            tensor<fp16, [1, 512, 20, 20]> input_351_cast_fp16 = conv(bias = model_23_one2one_cv3_2_0_0_conv_bias_to_fp16, dilations = input_351_dilations_0, groups = input_351_groups_0, pad = input_351_pad_0, pad_type = input_351_pad_type_0, strides = input_351_strides_0, weight = model_23_one2one_cv3_2_0_0_conv_weight_to_fp16, x = xi_cast_fp16)[name = tensor<string, []>("input_351_cast_fp16")];
            tensor<fp16, [1, 512, 20, 20]> input_353_cast_fp16 = silu(x = input_351_cast_fp16)[name = tensor<string, []>("input_353_cast_fp16")];
            tensor<string, []> input_355_pad_type_0 = const()[name = tensor<string, []>("input_355_pad_type_0"), val = tensor<string, []>("valid")];
            tensor<int32, [2]> input_355_strides_0 = const()[name = tensor<string, []>("input_355_strides_0"), val = tensor<int32, [2]>([1, 1])];
            tensor<int32, [4]> input_355_pad_0 = const()[name = tensor<string, []>("input_355_pad_0"), val = tensor<int32, [4]>([0, 0, 0, 0])];
            tensor<int32, [2]> input_355_dilations_0 = const()[name = tensor<string, []>("input_355_dilations_0"), val = tensor<int32, [2]>([1, 1])];
            tensor<int32, []> input_355_groups_0 = const()[name = tensor<string, []>("input_355_groups_0"), val = tensor<int32, []>(1)];
            tensor<fp16, [128, 512, 1, 1]> model_23_one2one_cv3_2_0_1_conv_weight_to_fp16 = const()[name = tensor<string, []>("model_23_one2one_cv3_2_0_1_conv_weight_to_fp16"), val = tensor<fp16, [128, 512, 1, 1]>(BLOBFILE(path = tensor<string, []>("@model_path/weights/weight.bin"), offset = tensor<uint64, []>(18776256)))];
            tensor<fp16, [128]> model_23_one2one_cv3_2_0_1_conv_bias_to_fp16 = const()[name = tensor<string, []>("model_23_one2one_cv3_2_0_1_conv_bias_to_fp16"), val = tensor<fp16, [128]>(BLOBFILE(path = tensor<string, []>("@model_path/weights/weight.bin"), offset = tensor<uint64, []>(18907392)))];
            tensor<fp16, [1, 128, 20, 20]> input_355_cast_fp16 = conv(bias = model_23_one2one_cv3_2_0_1_conv_bias_to_fp16, dilations = input_355_dilations_0, groups = input_355_groups_0, pad = input_355_pad_0, pad_type = input_355_pad_type_0, strides = input_355_strides_0, weight = model_23_one2one_cv3_2_0_1_conv_weight_to_fp16, x = input_353_cast_fp16)[name = tensor<string, []>("input_355_cast_fp16")];
            tensor<fp16, [1, 128, 20, 20]> input_357_cast_fp16 = silu(x = input_355_cast_fp16)[name = tensor<string, []>("input_357_cast_fp16")];
            tensor<string, []> input_359_pad_type_0 = const()[name = tensor<string, []>("input_359_pad_type_0"), val = tensor<string, []>("custom")];
            tensor<int32, [4]> input_359_pad_0 = const()[name = tensor<string, []>("input_359_pad_0"), val = tensor<int32, [4]>([1, 1, 1, 1])];
            tensor<int32, []> input_359_groups_0 = const()[name = tensor<string, []>("input_359_groups_0"), val = tensor<int32, []>(128)];
            tensor<int32, [2]> input_359_strides_0 = const()[name = tensor<string, []>("input_359_strides_0"), val = tensor<int32, [2]>([1, 1])];
            tensor<int32, [2]> input_359_dilations_0 = const()[name = tensor<string, []>("input_359_dilations_0"), val = tensor<int32, [2]>([1, 1])];
            tensor<fp16, [128, 1, 3, 3]> model_23_one2one_cv3_2_1_0_conv_weight_to_fp16 = const()[name = tensor<string, []>("model_23_one2one_cv3_2_1_0_conv_weight_to_fp16"), val = tensor<fp16, [128, 1, 3, 3]>(BLOBFILE(path = tensor<string, []>("@model_path/weights/weight.bin"), offset = tensor<uint64, []>(18907712)))];
            tensor<fp16, [128]> model_23_one2one_cv3_2_1_0_conv_bias_to_fp16 = const()[name = tensor<string, []>("model_23_one2one_cv3_2_1_0_conv_bias_to_fp16"), val = tensor<fp16, [128]>(BLOBFILE(path = tensor<string, []>("@model_path/weights/weight.bin"), offset = tensor<uint64, []>(18910080)))];
            tensor<fp16, [1, 128, 20, 20]> input_359_cast_fp16 = conv(bias = model_23_one2one_cv3_2_1_0_conv_bias_to_fp16, dilations = input_359_dilations_0, groups = input_359_groups_0, pad = input_359_pad_0, pad_type = input_359_pad_type_0, strides = input_359_strides_0, weight = model_23_one2one_cv3_2_1_0_conv_weight_to_fp16, x = input_357_cast_fp16)[name = tensor<string, []>("input_359_cast_fp16")];
            tensor<fp16, [1, 128, 20, 20]> input_361_cast_fp16 = silu(x = input_359_cast_fp16)[name = tensor<string, []>("input_361_cast_fp16")];
            tensor<string, []> input_363_pad_type_0 = const()[name = tensor<string, []>("input_363_pad_type_0"), val = tensor<string, []>("valid")];
            tensor<int32, [2]> input_363_strides_0 = const()[name = tensor<string, []>("input_363_strides_0"), val = tensor<int32, [2]>([1, 1])];
            tensor<int32, [4]> input_363_pad_0 = const()[name = tensor<string, []>("input_363_pad_0"), val = tensor<int32, [4]>([0, 0, 0, 0])];
            tensor<int32, [2]> input_363_dilations_0 = const()[name = tensor<string, []>("input_363_dilations_0"), val = tensor<int32, [2]>([1, 1])];
            tensor<int32, []> input_363_groups_0 = const()[name = tensor<string, []>("input_363_groups_0"), val = tensor<int32, []>(1)];
            tensor<fp16, [128, 128, 1, 1]> model_23_one2one_cv3_2_1_1_conv_weight_to_fp16 = const()[name = tensor<string, []>("model_23_one2one_cv3_2_1_1_conv_weight_to_fp16"), val = tensor<fp16, [128, 128, 1, 1]>(BLOBFILE(path = tensor<string, []>("@model_path/weights/weight.bin"), offset = tensor<uint64, []>(18910400)))];
            tensor<fp16, [128]> model_23_one2one_cv3_2_1_1_conv_bias_to_fp16 = const()[name = tensor<string, []>("model_23_one2one_cv3_2_1_1_conv_bias_to_fp16"), val = tensor<fp16, [128]>(BLOBFILE(path = tensor<string, []>("@model_path/weights/weight.bin"), offset = tensor<uint64, []>(18943232)))];
            tensor<fp16, [1, 128, 20, 20]> input_363_cast_fp16 = conv(bias = model_23_one2one_cv3_2_1_1_conv_bias_to_fp16, dilations = input_363_dilations_0, groups = input_363_groups_0, pad = input_363_pad_0, pad_type = input_363_pad_type_0, strides = input_363_strides_0, weight = model_23_one2one_cv3_2_1_1_conv_weight_to_fp16, x = input_361_cast_fp16)[name = tensor<string, []>("input_363_cast_fp16")];
            tensor<fp16, [1, 128, 20, 20]> input_cast_fp16 = silu(x = input_363_cast_fp16)[name = tensor<string, []>("input_cast_fp16")];
            tensor<string, []> var_1395_pad_type_0 = const()[name = tensor<string, []>("op_1395_pad_type_0"), val = tensor<string, []>("valid")];
            tensor<int32, [2]> var_1395_strides_0 = const()[name = tensor<string, []>("op_1395_strides_0"), val = tensor<int32, [2]>([1, 1])];
            tensor<int32, [4]> var_1395_pad_0 = const()[name = tensor<string, []>("op_1395_pad_0"), val = tensor<int32, [4]>([0, 0, 0, 0])];
            tensor<int32, [2]> var_1395_dilations_0 = const()[name = tensor<string, []>("op_1395_dilations_0"), val = tensor<int32, [2]>([1, 1])];
            tensor<int32, []> var_1395_groups_0 = const()[name = tensor<string, []>("op_1395_groups_0"), val = tensor<int32, []>(1)];
            tensor<fp16, [1, 128, 1, 1]> model_23_one2one_cv3_2_2_weight_to_fp16 = const()[name = tensor<string, []>("model_23_one2one_cv3_2_2_weight_to_fp16"), val = tensor<fp16, [1, 128, 1, 1]>(BLOBFILE(path = tensor<string, []>("@model_path/weights/weight.bin"), offset = tensor<uint64, []>(18943552)))];
            tensor<fp16, [1]> model_23_one2one_cv3_2_2_bias_to_fp16 = const()[name = tensor<string, []>("model_23_one2one_cv3_2_2_bias_to_fp16"), val = tensor<fp16, [1]>([-0x1.1b8p+2])];
            tensor<fp16, [1, 1, 20, 20]> var_1395_cast_fp16 = conv(bias = model_23_one2one_cv3_2_2_bias_to_fp16, dilations = var_1395_dilations_0, groups = var_1395_groups_0, pad = var_1395_pad_0, pad_type = var_1395_pad_type_0, strides = var_1395_strides_0, weight = model_23_one2one_cv3_2_2_weight_to_fp16, x = input_cast_fp16)[name = tensor<string, []>("op_1395_cast_fp16")];
            tensor<int32, [3]> var_1396 = const()[name = tensor<string, []>("op_1396"), val = tensor<int32, [3]>([1, 1, -1])];
            tensor<fp16, [1, 1, 400]> var_1397_cast_fp16 = reshape(shape = var_1396, x = var_1395_cast_fp16)[name = tensor<string, []>("op_1397_cast_fp16")];
            tensor<bool, []> var_1399_interleave_0 = const()[name = tensor<string, []>("op_1399_interleave_0"), val = tensor<bool, []>(false)];
            tensor<fp16, [1, 1, 8400]> var_1399_cast_fp16 = concat(axis = var_1128, interleave = var_1399_interleave_0, values = (var_1293_cast_fp16, var_1345_cast_fp16, var_1397_cast_fp16))[name = tensor<string, []>("op_1399_cast_fp16")];
            tensor<int32, [2]> var_1401_split_sizes_0 = const()[name = tensor<string, []>("op_1401_split_sizes_0"), val = tensor<int32, [2]>([2, 2])];
            tensor<int32, []> var_1401_axis_0 = const()[name = tensor<string, []>("op_1401_axis_0"), val = tensor<int32, []>(1)];
            tensor<fp16, [1, 2, 8400]> var_1401_cast_fp16_0, tensor<fp16, [1, 2, 8400]> var_1401_cast_fp16_1 = split(axis = var_1401_axis_0, split_sizes = var_1401_split_sizes_0, x = distance_cast_fp16)[name = tensor<string, []>("op_1401_cast_fp16")];
            tensor<fp16, [1, 2, 8400]> anchor_points_to_fp16 = const()[name = tensor<string, []>("anchor_points_to_fp16"), val = tensor<fp16, [1, 2, 8400]>(BLOBFILE(path = tensor<string, []>("@model_path/weights/weight.bin"), offset = tensor<uint64, []>(18943872)))];
            tensor<fp16, [1, 2, 8400]> x1y1_cast_fp16 = sub(x = anchor_points_to_fp16, y = var_1401_cast_fp16_0)[name = tensor<string, []>("x1y1_cast_fp16")];
            tensor<fp16, [1, 2, 8400]> x2y2_cast_fp16 = add(x = anchor_points_to_fp16, y = var_1401_cast_fp16_1)[name = tensor<string, []>("x2y2_cast_fp16")];
            tensor<bool, []> var_1406_interleave_0 = const()[name = tensor<string, []>("op_1406_interleave_0"), val = tensor<bool, []>(false)];
            tensor<fp16, [1, 4, 8400]> var_1406_cast_fp16 = concat(axis = var_1130, interleave = var_1406_interleave_0, values = (x1y1_cast_fp16, x2y2_cast_fp16))[name = tensor<string, []>("op_1406_cast_fp16")];
            tensor<fp16, [1, 8400]> var_1122_to_fp16 = const()[name = tensor<string, []>("op_1122_to_fp16"), val = tensor<fp16, [1, 8400]>(BLOBFILE(path = tensor<string, []>("@model_path/weights/weight.bin"), offset = tensor<uint64, []>(18977536)))];
            tensor<fp16, [1, 4, 8400]> dbox_cast_fp16 = mul(x = var_1406_cast_fp16, y = var_1122_to_fp16)[name = tensor<string, []>("dbox_cast_fp16")];
            tensor<fp16, [1, 1, 8400]> var_1408_cast_fp16 = sigmoid(x = var_1399_cast_fp16)[name = tensor<string, []>("op_1408_cast_fp16")];
            tensor<bool, []> y_interleave_0 = const()[name = tensor<string, []>("y_interleave_0"), val = tensor<bool, []>(false)];
            tensor<fp16, [1, 5, 8400]> y_cast_fp16 = concat(axis = var_1130, interleave = y_interleave_0, values = (dbox_cast_fp16, var_1408_cast_fp16))[name = tensor<string, []>("y_cast_fp16")];
            tensor<int32, [3]> var_1411 = const()[name = tensor<string, []>("op_1411"), val = tensor<int32, [3]>([0, 2, 1])];
            tensor<int32, [2]> var_1413 = const()[name = tensor<string, []>("op_1413"), val = tensor<int32, [2]>([4, 1])];
            tensor<int32, []> var_1414_axis_0 = const()[name = tensor<string, []>("op_1414_axis_0"), val = tensor<int32, []>(-1)];
            tensor<fp16, [1, 8400, 5]> var_1412_cast_fp16 = transpose(perm = var_1411, x = y_cast_fp16)[name = tensor<string, []>("transpose_1")];
            tensor<fp16, [1, 8400, 4]> var_1414_cast_fp16_0, tensor<fp16, [1, 8400, 1]> var_1414_cast_fp16_1 = split(axis = var_1414_axis_0, split_sizes = var_1413, x = var_1412_cast_fp16)[name = tensor<string, []>("op_1414_cast_fp16")];
            tensor<int32, [1]> reduce_max_0_axes_0 = const()[name = tensor<string, []>("reduce_max_0_axes_0"), val = tensor<int32, [1]>([-1])];
            tensor<bool, []> reduce_max_0_keep_dims_0 = const()[name = tensor<string, []>("reduce_max_0_keep_dims_0"), val = tensor<bool, []>(false)];
            tensor<fp16, [1, 8400]> reduce_max_0_cast_fp16 = reduce_max(axes = reduce_max_0_axes_0, keep_dims = reduce_max_0_keep_dims_0, x = var_1414_cast_fp16_1)[name = tensor<string, []>("reduce_max_0_cast_fp16")];
            tensor<int32, []> var_1422_axis_0 = const()[name = tensor<string, []>("op_1422_axis_0"), val = tensor<int32, []>(-1)];
            tensor<bool, []> var_1422_ascending_0 = const()[name = tensor<string, []>("op_1422_ascending_0"), val = tensor<bool, []>(false)];
            tensor<fp16, [1, 300]> var_1422_cast_fp16_0, tensor<int32, [1, 300]> var_1422_cast_fp16_1 = topk(ascending = var_1422_ascending_0, axis = var_1422_axis_0, k = var_1121, x = reduce_max_0_cast_fp16)[name = tensor<string, []>("op_1422_cast_fp16")];
            tensor<int32, [1]> ori_index_axes_0 = const()[name = tensor<string, []>("ori_index_axes_0"), val = tensor<int32, [1]>([-1])];
            tensor<int32, [1, 300, 1]> ori_index = expand_dims(axes = ori_index_axes_0, x = var_1422_cast_fp16_1)[name = tensor<string, []>("ori_index")];
            tensor<fp16, [1, 300, 1]> scores_3_cast_fp16 = gather_along_axis(axis = var_1130, indices = ori_index, x = var_1414_cast_fp16_1)[name = tensor<string, []>("scores_3_cast_fp16")];
            tensor<int32, [2]> concat_0 = const()[name = tensor<string, []>("concat_0"), val = tensor<int32, [2]>([1, 300])];
            tensor<fp16, [1, 300]> var_1428_cast_fp16 = reshape(shape = concat_0, x = scores_3_cast_fp16)[name = tensor<string, []>("op_1428_cast_fp16")];
            tensor<int32, []> scores_5_axis_0 = const()[name = tensor<string, []>("scores_5_axis_0"), val = tensor<int32, []>(-1)];
            tensor<bool, []> scores_5_ascending_0 = const()[name = tensor<string, []>("scores_5_ascending_0"), val = tensor<bool, []>(false)];
            tensor<fp16, [1, 300]> scores_5_cast_fp16_0, tensor<int32, [1, 300]> scores_5_cast_fp16_1 = topk(ascending = scores_5_ascending_0, axis = scores_5_axis_0, k = var_1121, x = var_1428_cast_fp16)[name = tensor<string, []>("scores_5_cast_fp16")];
            tensor<int32, [1, 300]> var_1432_after_broadcast = const()[name = tensor<string, []>("op_1432_after_broadcast"), val = tensor<int32, [1, 300]>([[0, 0, 0, 0, 0, 0, 0, 0, 0, 0, 0, 0, 0, 0, 0, 0, 0, 0, 0, 0, 0, 0, 0, 0, 0, 0, 0, 0, 0, 0, 0, 0, 0, 0, 0, 0, 0, 0, 0, 0, 0, 0, 0, 0, 0, 0, 0, 0, 0, 0, 0, 0, 0, 0, 0, 0, 0, 0, 0, 0, 0, 0, 0, 0, 0, 0, 0, 0, 0, 0, 0, 0, 0, 0, 0, 0, 0, 0, 0, 0, 0, 0, 0, 0, 0, 0, 0, 0, 0, 0, 0, 0, 0, 0, 0, 0, 0, 0, 0, 0, 0, 0, 0, 0, 0, 0, 0, 0, 0, 0, 0, 0, 0, 0, 0, 0, 0, 0, 0, 0, 0, 0, 0, 0, 0, 0, 0, 0, 0, 0, 0, 0, 0, 0, 0, 0, 0, 0, 0, 0, 0, 0, 0, 0, 0, 0, 0, 0, 0, 0, 0, 0, 0, 0, 0, 0, 0, 0, 0, 0, 0, 0, 0, 0, 0, 0, 0, 0, 0, 0, 0, 0, 0, 0, 0, 0, 0, 0, 0, 0, 0, 0, 0, 0, 0, 0, 0, 0, 0, 0, 0, 0, 0, 0, 0, 0, 0, 0, 0, 0, 0, 0, 0, 0, 0, 0, 0, 0, 0, 0, 0, 0, 0, 0, 0, 0, 0, 0, 0, 0, 0, 0, 0, 0, 0, 0, 0, 0, 0, 0, 0, 0, 0, 0, 0, 0, 0, 0, 0, 0, 0, 0, 0, 0, 0, 0, 0, 0, 0, 0, 0, 0, 0, 0, 0, 0, 0, 0, 0, 0, 0, 0, 0, 0, 0, 0, 0, 0, 0, 0, 0, 0, 0, 0, 0, 0, 0, 0, 0, 0, 0, 0, 0, 0, 0, 0, 0, 0, 0, 0, 0, 0, 0, 0, 0, 0, 0, 0, 0, 0]])];
            tensor<int32, []> stack_0_axis_0 = const()[name = tensor<string, []>("stack_0_axis_0"), val = tensor<int32, []>(2)];
            tensor<int32, [1, 300, 2]> stack_0 = stack(axis = stack_0_axis_0, values = (var_1432_after_broadcast, scores_5_cast_fp16_1))[name = tensor<string, []>("stack_0")];
            tensor<int32, [1, 300, 1]> idx_transpose = gather_nd(indices = stack_0, x = ori_index)[name = tensor<string, []>("idx_transpose")];
            tensor<int32, [1]> scores_axes_0 = const()[name = tensor<string, []>("scores_axes_0"), val = tensor<int32, [1]>([2])];
            tensor<fp16, [1, 300, 1]> scores_cast_fp16 = expand_dims(axes = scores_axes_0, x = scores_5_cast_fp16_0)[name = tensor<string, []>("scores_cast_fp16")];
            tensor<int32, [1, 300]> var_1437 = sub(x = scores_5_cast_fp16_1, y = scores_5_cast_fp16_1)[name = tensor<string, []>("op_1437")];
            tensor<int32, [1]> var_1438_axes_0 = const()[name = tensor<string, []>("op_1438_axes_0"), val = tensor<int32, [1]>([2])];
            tensor<int32, [1, 300, 1]> var_1438 = expand_dims(axes = var_1438_axes_0, x = var_1437)[name = tensor<string, []>("op_1438")];
            tensor<int32, [3]> var_1440 = const()[name = tensor<string, []>("op_1440"), val = tensor<int32, [3]>([1, 1, 4])];
            tensor<int32, [1, 300, 4]> var_1441 = tile(reps = var_1440, x = idx_transpose)[name = tensor<string, []>("op_1441")];
            tensor<fp16, [1, 300, 4]> boxes_cast_fp16 = gather_along_axis(axis = var_1130, indices = var_1441, x = var_1414_cast_fp16_0)[name = tensor<string, []>("boxes_cast_fp16")];
            tensor<bool, []> var_1444_interleave_0 = const()[name = tensor<string, []>("op_1444_interleave_0"), val = tensor<bool, []>(false)];
            tensor<string, []> conf_to_fp16_dtype_0 = const()[name = tensor<string, []>("conf_to_fp16_dtype_0"), val = tensor<string, []>("fp16")];
            tensor<fp16, [1, 300, 1]> var_1438_to_fp16 = cast(dtype = conf_to_fp16_dtype_0, x = var_1438)[name = tensor<string, []>("cast_15")];
            tensor<fp16, [1, 300, 6]> var_1444_cast_fp16 = concat(axis = var_1128, interleave = var_1444_interleave_0, values = (boxes_cast_fp16, scores_cast_fp16, var_1438_to_fp16))[name = tensor<string, []>("op_1444_cast_fp16")];
            tensor<string, []> var_1444_cast_fp16_to_fp32_dtype_0 = const()[name = tensor<string, []>("op_1444_cast_fp16_to_fp32_dtype_0"), val = tensor<string, []>("fp32")];
            tensor<fp32, [1, 300, 6]> var_1444 = cast(dtype = var_1444_cast_fp16_to_fp32_dtype_0, x = var_1444_cast_fp16)[name = tensor<string, []>("cast_14")];
        } -> (var_1444);
}